src/ba_2motifs.pt (torch, 7055 bytes, 8 tensors)

conv1.bias f4 [20]
00000000: dfd2 c8bd a577 93be 1a74 a23e d5d9 61be
00000010: 77b9 aabd ff54 0d3e 44f3 96be 5491 eebc
00000020: 0ec4 f53d 2d99 79bd 7584 ef3d 8b18 6d3e
00000030: a6d8 853a 27e5 5fbc bfc2 2a3e 456d 2f3e
00000040: f044 283e 0204 9d3e 5d1b e9bd 893e df3a
-0.098058455 -0.2880222 0.31729203 -0.22055753 -0.08336156 0.13801955 -0.29482472 -0.029122032
0.12000285 -0.060937095 0.11695186 0.23153894 0.0010211661 -0.013665474 0.16675852 0.17131527
0.16432548 0.3066712 -0.11382172 0.0017032187

conv1.lin.weight f4 [20, 10]
00000000: ce85 d63e 3873 9abe 3828 713e cc9d 7abe
00000010: c6ae 153e aa4d d93e 2210 973e d639 8ebe
00000020: 6d21 8a3e 4f03 d83e cb8a 043e 1845 903e
00000030: 921e c33e 1c0a 8e3e 7c9b 153f 04ef 043f
00000040: 5168 183e aa87 e93e 2f0c cc3e a50e 77bb
00000050: acad 98be c561 61bc 0559 34bf 849c 8abe
00000060: e0a9 bdbe d50c 18bf e4a6 d4be 78a3 a4be
00000070: fc33 84be 8178 a33d 2f4b 38bf ecf6 7bbe
00000080: 4aca 49be 36e8 32be 773e 963d 5672 65bb
00000090: 1c71 fdbb d91f 1cbf 2e57 d83d 1539 01be
000000a0: 882a 2abe 03fb 80be 3e9c 213e 1157 91be
000000b0: 0e88 133e 4050 1dbe ae82 5dbe b036 b73d
000000c0: 8947 7abe 8014 f4be a898 3fbe 539d d2be
000000d0: 8a28 7dbe aed2 05be 6c59 0ebf b46c 703e
000000e0: 7930 f2be 4a28 0fbf 4d4c b23d 9d01 cbbe
000000f0: 4154 053f a904 073e fa28 003f 5f47 063f
00000100: 9f59 e0bd af42 0a3f db05 693e 0f66 023f
00000110: 1ec5 ff3d cbfc 1c3e 4506 763e 0ea8 00bf
00000120: 9b59 c63e 2eeb fc3d 81bd 383d 2beb eabe
00000130: 5504 a63e c3bf bbbe 9237 ac3e 7517 eabd
00000140: 9b07 09bf e9d1 3d3e 0709 fcbe 916e 3c3e
00000150: c50b ecbe 945b dd3d 8713 0cbf 6ebf c7bd
00000160: b18c f0ba 06a8 e2be 7251 08bd 1014 1b3d
00000170: f3d8 fa3d 6ca8 773d 85c2 e7be 0b6f 81bd
00000180: d178 093e 39c0 aebb 7d6e bdbe 14e4 853d
00000190: 4a38 e1be 1499 293e 9175 253d 4444 5abc
000001a0: 2730 14bf b492 bc3c 4553 fbbd 89da 09bf
000001b0: d24b 12bf 4797 2b3c 373f 59be 8f0c f7be
000001c0: 25e4 d5be 939f 4fbd e800 39bc 4a91 003e
000001d0: bb2b 04be 68e6 14bf 4ede 25bd f84e 7e3e
000001e0: a124 f6bd b292 3fbe d715 2e3e 822e 5ebe
000001f0: 94e2 40be 2cf5 033e 3510 5abe 3164 e33d
00000200: bb2b 66be 4cbb b23e 530b 953d ba09 d23d
00000210: a89c c4be 0ccc 863d ded7 653e 435c 38bd
00000220: e7e7 fabe c755 813e 5d70 3f3e 7fed 19be
00000230: 7260 2abf f710 b0be 2df2 d0bd 7173 a6bd
00000240: 7c91 1dbf 0f3b bc3c ffdb afbe 69b4 d63d
00000250: 215e efbb 902b b4be 7e43 00bf 18d7 e7be
00000260: fe17 14bf f72b febe b8cb 86be d6cf 203e
00000270: 58e6 d73d 327c 1cbf 75fa 3b3e 89cc 04be
00000280: 318b 51be ebc9 343e 90c8 1fbf 2e6a 48bd
00000290: 807c 1cbf e014 c9be 479d d6bd bfa3 bbbd
000002a0: 7834 35bf 0860 6dbe f727 c2bc b971 853e
000002b0: 27b4 873e bfeb 8a3c 3f20 223f ede1 4c3f
000002c0: 8086 263f 1e58 053f ac35 073e 11ed 8c3e
000002d0: 0a00 debc d67f 813e 721d b4be 409d 03bf
000002e0: be27 893e 5a6c d0be 2e63 8b3e d42f 08bd
000002f0: 0400 82be 0f27 1bbe 1099 bebe 74bd a53e
00000300: 44d8 93be 2400 943e 7843 733e d682 c0be
00000310: 1a3e 80be 0283 9c3e 3f37 3dbe 3360 5f3e
0.4189896 -0.3016603 0.23550498 -0.24474257 0.14617452 0.42442065 0.29504496 -0.277785
0.26978627 0.42190024 0.1294357 0.28177714 0.3810926 0.27742088 0.58440375 0.5192721
0.14883544 0.45611316 0.39853045 -0.0037697938 -0.2982 -0.01375622 -0.70448333 -0.27072537
-0.37043667 -0.5939458 -0.41533577 -0.32155967 -0.2582091 0.07981969 -0.7198972 -0.24605912
-0.19706073 -0.17471394 0.07336133 -0.0035010776 -0.007734431 -0.60986096 0.10563503 -0.12619431
-0.16617787 -0.25191507 0.15782258 -0.2838674 0.1440737 -0.15362644 -0.21631882 0.08945978
-0.24441351 -0.4767189 -0.18710577 -0.41135654 -0.24722496 -0.13068649 -0.55605197 0.23478967
-0.47302607 -0.5592085 0.087059595 -0.39649668 0.52081686 0.13185371 0.50062525 0.52452654
-0.10954594 0.54008 0.2275614 0.5093698 0.12488769 0.15330808 0.24025829 -0.5025643
0.3874024 0.123495445 0.0451026 -0.45882544 0.3242518 -0.3666974 0.33636147 -0.11430255
-0.5352723 0.18537106 -0.49225637 0.18401553 -0.4610273 0.10808483 -0.54717296 -0.09753309
-0.0018352476 -0.44268817 -0.033280797 0.03786093 0.12248411 0.060463354 -0.45265594 -0.06320008
0.13424994 -0.0053329733 -0.36998358 0.06537643 -0.43988258 0.16562301 0.040395323 -0.01332194
-0.57885975 0.023019172 -0.12271742 -0.53849083 -0.5714694 0.010473079 -0.21215521 -0.4825177
-0.41775623 -0.05068929 -0.01129172 0.12555423 -0.12907307 -0.5816407 -0.04049521 0.24834812
-0.12018705 -0.18708304 0.17000519 -0.21697429 -0.18836433 0.12886494 -0.21295245 0.11103094
-0.2247762 0.3490852 0.072775505 0.102557614 -0.3840077 0.065818876 0.22445628 -0.045009863
-0.49005052 0.25260755 0.18695207 -0.15032004 -0.66553414 -0.34387943 -0.10202441 -0.081274875
-0.61550117 0.02297738 -0.3434753 0.10483629 -0.007304922 -0.35189486 -0.50102985 -0.4528129
-0.5784911 -0.49642918 -0.263273 0.15704283 0.105419815 -0.61127007 0.1835726 -0.12968649
-0.20463254 0.1765515 -0.6241541 -0.048929386 -0.6112747 -0.3927374 -0.10479217 -0.091620915
-0.70783186 -0.23181164 -0.023700697 0.26063326 0.26504633 0.016958116 0.63330454 0.80032235
0.6504898 0.5208758 0.13204068 0.27524617 -0.027099628 0.25292844 -0.35178715 -0.5141182
0.26788133 -0.40707666 0.27224106 -0.033248737 -0.25390637 -0.15151618 -0.37226152 0.32371104
-0.28875935 0.28906357 0.23756206 -0.3759982 -0.2504738 0.305687 -0.18478106 0.21814041

conv2.bias f4 [20]
00000000: ea42 473c ffc8 2a3c 71f0 743d 18e9 ed3b
00000010: 65e0 8fbd 776c 043d 7072 23bc 9cfb 103d
00000020: 1b46 063d 39a7 0fbc 0a9e c33e bb6d 1e3e
00000030: 8c32 9f3c c66e ecbd 03b1 77be 0187 dfbd
00000040: 594d d73e 1d48 c3bb e5c3 3cbd 7ca1 05be
0.01216195 0.010423898 0.059799615 0.007260453 -0.07025222 0.032330003 -0.0099760145 0.035396203
0.0327817 -0.008767896 0.38206512 0.15471546 0.019433282 -0.11544566 -0.24188618 -0.10914422
0.420512 -0.0059595243 -0.046085257 -0.13049883

conv2.lin.weight f4 [20, 20]
00000000: f2d9 64bd 3fc5 99bf cd00 a7be 867b ecbe
00000010: 7e2c c03e 432b 823f caa6 26bf 70d2 b0be
00000020: a15e 0f3f f384 c1be ca48 943e cf43 96bd
00000030: 6667 b03e 0431 d8be 40a4 06be b87b d5bd
00000040: 7635 f63e 7c5f f9be 813a d33d 86a2 c1bd
00000050: 9c2a 373d e840 4bbe 5fe5 febe d50b 063e
00000060: 54d3 263e 4a93 1d3f d728 3f3e 4660 a4be
00000070: b82e 223f 5f14 153e d4f7 1e3f 6204 783e
00000080: ed3a 91be f684 9a3e 7e50 2d3f b908 883f
00000090: dd05 7f3f 413f 463e 1707 81ba 7fa8 35bd
000000a0: d623 d2be 87eb 59bf 8d21 5ebf d8f5 073d
000000b0: 6d07 efbd de2e 3a3f a901 8dbd 73b9 c1be
000000c0: e6ff 2a3f 8c5c 90be 2ff2 a33d b598 f3be
000000d0: 80b7 af3e a9c2 0dbf ee81 4e3c ea28 a53b
000000e0: fb63 003c 663e cebe 6738 35bd a9a5 df3e
000000f0: fa3c 11bf de45 ac3e e847 cc3f 6e6a d73d
00000100: 8053 3f3c 5164 2cbf f6d3 8d3e 3a37 cabd
00000110: deea bc3d 13eb 973e 22f5 ccbc e57d fe3e
00000120: 254e e3bd 42e5 18be 73b8 313e b3ce 333d
00000130: 013a c63e 346f 39be 39b7 56be 2914 1bbe
00000140: 7b87 c3bd ef50 91bb a43c a2be f5cb febd
00000150: 25fa 1a3f ebe3 863f a1c8 f13e 69ff 8bbe
00000160: 65ac 953f 62f2 b2bd 359a aa3f 5385 473e
00000170: 9e37 c83e a0e2 b73d a7a9 7b3f e0f1 933f
00000180: e074 913f 0046 e93e 8894 cfbb 2808 5d3e
00000190: 7789 f2be 7494 35bf cc44 c73d 0762 1cbe
000001a0: 060b 7bbe 9ca2 8c3f 39ce 25bf 7f66 adbe
000001b0: fe70 063f afd6 14be 41c0 eb3d cc5c b7bd
000001c0: ff09 5b3e 46c4 b8be bbeb bc3e 46f5 4e3e
000001d0: 7314 063f 7966 40be 806f 0a3e 3101 d3be
000001e0: 0b7c cebe 7e29 51be 6dbc c03f d36d 4dbd
000001f0: 6347 c5bd ddfa b43e 9c5a 3fbe d144 043e
00000200: d977 183f 1296 b73e 5c6b 213f 4ca4 343e
00000210: f428 45be f554 2b3e decd 853c 0778 6f3e
00000220: a062 103f 3611 463d c9f3 bd3d e065 d93c
00000230: f176 ac3d 5adc 10bf 27db 61bf 8d13 09bf
00000240: 61d4 ffbd cd6b 4b3f 485b 34bf 6817 f4be
00000250: 0a24 263f f08a 66bd 5570 283f 1e52 1abf
00000260: e2d1 da3e a698 98be 8338 0b3e c9c5 343c
00000270: bed6 8a3e 799b a2bd 51e7 f33c 4d45 e5be
00000280: 7a41 143e 0b47 34bf 0676 9d3e d834 af3e
00000290: b189 983e 0998 093f fdb0 74be 0f9c 4c3e
000002a0: 95ed 8a3e 3924 ad3e 1d95 c73e 6b13 e03e
000002b0: c59c 1e3e a357 8ebd df3e 32be dc00 d8be
000002c0: f6ac c63e e2be 87be 83dd 1fbc 4951 8e3e
000002d0: e65f d33e 11c2 e3bd 7f38 93bf d0df 3d3e
000002e0: 9818 a93e 639b 5b3f 8b6b cfbd d502 9f3e
000002f0: f564 283e 13a9 af3e 0b60 5f3e a8de 903e
00000300: 148b 3c3d c1e2 6a3e 2589 2a3c 1953 f0bd
00000310: a266 8fbe 13d9 2fbe 49e1 2fbe 39e1 fdbd
00000320: 1b26 233c 625c cdbe 53fe f23e 9273 57bd
00000330: 3b0e 16be ddc8 5a3e cddb 26bb 8c79 223e
00000340: 9b43 08be ff27 b53d 42cd df3e 23c9 8b3c
00000350: dd05 02bf 487e 2e3d 9b23 6fbe e05d 1f3e
00000360: 074c b3be 7272 0bbf 6b9b 8f3e 9d94 753d
00000370: 6b93 433d a835 f7be 5d84 06bf 30a0 bebd
00000380: 2d37 553e cad8 f23e afa2 a4be 4559 503d
00000390: 816c c73e 7ea9 92be 9cd9 1d3f 3d62 a93d
000003a0: e7d8 30be a0c5 61bd 7ebb 933d 783e f0bd
000003b0: b7fb f63e 940d 9cbe e73c 7b3e a1d6 7cbe
000003c0: 5211 a8be 21f9 63bf aa62 51bd cf9d f3be
000003d0: 2d0d c9be b0b1 003f fe26 d4be 741c 6b3e
000003e0: a37b 3d3f 6970 70be 0d13 d13e 2958 8fbe
000003f0: 6e50 eebd f12b 16bf ac32 903f 1da6 853f
-0.05587191 -1.201332 -0.32617798 -0.4618799 0.37533945 1.0169452 -0.6509825 -0.3453555
0.5600377 -0.37796745 0.28961784 -0.07337152 0.34453887 -0.42224896 -0.13148594 -0.10423988
0.48087662 -0.4870566 0.10313893 -0.09454827 0.04471837 -0.19848979 -0.4978437 0.13090451
0.16291553 0.6155287 0.18667923 -0.321047 0.6335254 0.14558552 0.62096906 0.24220422
-0.2836527 0.30179566 0.67700946 1.0627662 0.9961832 0.19360067 -0.0009844032 -0.044350144
-0.41042966 -0.8512501 -0.86769944 0.03319344 -0.11671338 0.72727764 -0.06885082 -0.378368
0.6679672 -0.28195608 0.08005177 -0.47577444 0.34319687 -0.5537515 0.01260422 0.0050402777
0.007836337 -0.4028198 -0.044243243 0.43681076 -0.5673367 0.33647054 1.5959444 0.10518347
0.011677623 -0.6734057 0.27700776 -0.09873815 0.09224485 0.29671535 -0.025019232 0.49705425
-0.11098889 -0.14931205 0.17355518 0.043898296 0.38716128 -0.18108827 -0.20968331 -0.15144409
-0.09547325 -0.004434697 -0.3168689 -0.124412455 0.6053794 1.0538305 0.4722338 -0.273433
1.1693236 -0.08737637 1.332831 0.19484453 0.39104933 0.08978772 0.98305744 1.1558189
1.1363792 0.45561218 -0.006334845 0.21585143 -0.47370502 -0.70929646 0.09729919 -0.1527177
-0.24515924 1.0987124 -0.64767796 -0.3386726 0.5251616 -0.1453502 0.11511279 -0.089532465
0.21390532 -0.36087245 0.36898598 0.20210752 0.52374953 -0.1878909 0.13519096 -0.41211846
-0.40329012 -0.20425984 1.5057503 -0.050153565 -0.096327566 0.35347643 -0.18686908 0.12916876
0.59557873 0.35856682 0.6305444 0.176408 -0.19253904 0.16731627 0.016333517 0.2338563
0.5640049 0.048356257 0.09275014 0.026537836 0.08421124 -0.5658623 -0.88225025 -0.5354546
-0.1249168 0.79461366 -0.70451784 -0.47674108 0.6489874 -0.056284845 0.65796405 -0.6028155
0.42738253 -0.29803962 0.13595776 0.011033484 0.2711696 -0.0793981 0.029773386 -0.44779435
0.14478102 -0.704209 0.30754107 0.34220004 0.2979255 0.5374761 -0.2389564 0.19981407
0.27134386 0.33816698 0.38980952 0.43764815 0.1548949 -0.06950309 -0.17406796 -0.42188156
0.38803834 -0.2651282 -0.009757402 0.2779639 0.41284102 -0.111209996 -1.1501616 0.18542409
0.33026576 0.85783976 -0.10127934 0.31056848 0.16444762 0.3430868 0.21813981 0.28294873
0.046031073 0.22938062 0.010408674 -0.117345996 -0.2800799 -0.17172651 -0.17175783 -0.123964734
0.0099578155 -0.40109545 0.4745966 -0.05260045 -0.14653866 0.21365686 -0.0025460601 0.15866679
-0.1330704 0.08845519 0.43711287 0.017063683 -0.50790197 0.0426009 -0.23353426 0.15563154
-0.35018942 -0.54471505 0.28048262 0.05995618 0.04774801 -0.48283124 -0.5254572 -0.09307897
0.20821829 0.47431022 -0.32155368 0.050866384 0.3894997 -0.28644937 0.6166017 0.082706906
-0.17270242 -0.05512011 0.07213496 -0.11730665 0.48238918 -0.3047911 0.24534951 -0.2469125
-0.32825714 -0.89052016 -0.051119484 -0.47581336 -0.39267865 0.5027113 -0.41436 0.22960073
0.7401678 -0.23480381 0.40834847 -0.27996948 -0.116364345 -0.586608 1.1265464 1.0441319

conv3.bias f4 [20]
00000000: 9d02 af3c 0a63 9abe 3bb6 11be 34b6 21be
00000010: f763 c4bd 12e5 90be 42c2 70be a905 48be
00000020: 55af b43c 1b1d 83be 24ed 6ebd 8651 07be
00000030: dc3b 373d 6764 d3bd 3eba 16be 5df8 c73d
00000040: 7c08 f8bd b9ad 38be ea38 62be 61a2 2fbe
0.02136355 -0.30153686 -0.14229672 -0.15792161 -0.09589379 -0.28299767 -0.23511603 -0.19533409
0.022056261 -0.25608143 -0.058331624 -0.13214692 0.04473482 -0.103218846 -0.14719483 0.097641684
-0.12110993 -0.1803502 -0.22092023 -0.17151786

conv3.lin.weight f4 [20, 20]
00000000: 986e 393e 966e 8b3e c1ec 61be 87e6 3b3f
00000010: bb58 f53d b265 85be 42e2 30bf 9e92 c0bd
00000020: a973 323d 81c6 183f a964 f5bf ab56 17be
00000030: 580b 4b3d 36d0 4cbe 7a78 0dbf be5d ac3d
00000040: 307b c23f f9ad 08be 2066 30bd 4f77 813d
00000050: bcf3 693e ea7a 9e3e 08e0 a43e 1b3d a1be
00000060: b973 cd3e bc7c 103f 6299 633c db2e efbe
00000070: 83c9 5a3f 30ab caba 43d6 8a3e 3911 37bf
00000080: 2ca0 8a3d 2798 a13e 3520 f6be cb80 2cbe
00000090: 9c42 a8be 281b b63d d21d 843e 3dd1 ff3e
000000a0: ac3f afbe f756 933d 5679 c83d e3ef ffbe
000000b0: 4ee1 d03d 7ed4 bc3e a162 ab3d 2419 1dbf
000000c0: 16e0 d5be 5e96 663e e1d8 ae3e 01b8 9dbe
000000d0: 5a77 9e3e 52ee 4fbe 318f 74bc bde7 56be
000000e0: 86a8 c9be b3a7 9d3e ce09 99be 1b21 b03e
000000f0: 284c 6c3e 8616 973e 5778 213d b5b9 00bf
00000100: d600 193b d7f4 0c3e 35fc 933c b59c 9dbc
00000110: e075 51be 0463 ee3b d912 abbe 60b4 de3e
00000120: a798 093f 4c04 0bbe 6be4 3e3f 69d4 b3be
00000130: 1dce 0b3f 6177 f23e bf3d 62be 7b82 8e3e
00000140: 08be a4be 265c abbd 7408 86be 3ccd b1be
00000150: 1462 823e c176 353f 8c74 d33d ed79 a6be
00000160: 5300 003f d54b 01bd 27b0 88be d0c3 c93d
00000170: ff9c 123f 4168 1cbe 2c4f 383f d562 953c
00000180: 706f 1d3f a976 573e e4ae a23d 5f83 fd3a
00000190: e8b4 8a3e 4468 c8bd 6f07 f53d 51c4 c2bd
000001a0: e135 ec3e d073 2e3f cff4 dfbe 9385 25bf
000001b0: fc15 fbbd 6143 dbbd 8ea5 dabe 5877 b93e
000001c0: 6ed7 543f 6d70 adbd d56d 4a3f a173 7c3d
000001d0: c711 323f 6d9e 163f a03b 8d3d db44 043f
000001e0: 7c6c 363e 9b6c 5bbd b941 083d 230b 00bf
000001f0: ad22 983e d76a bf3e dbc7 81bc 47b0 d8be
00000200: 8134 f73e aa13 dabe 8a08 29bf 8504 a53d
00000210: 9eb0 393f b30f 0d3f 7e40 323f 4bf2 7dbd
00000220: ada3 783f 135b 8c3e bc59 db3d 3100 f73e
00000230: 785f 6f3d 2dc6 913e ea2e 4f3e 9110 d0be
00000240: f8f5 4abd 0625 553f 9011 5bba 8e8f 2fbd
00000250: d70b 12bd 51f1 84bd cf0e 0bbf 4477 85be
00000260: 7c96 d73e 8d06 f3bd 87ce 2d3f c75b 1fbd
00000270: f9e2 513f 0711 f53e 9bd9 95be 97ca fb3e
00000280: e4cc 83be 9214 d639 ff54 183e d2da 7abd
00000290: ac00 1ebe 8e80 913e 78a2 d23c 193b 1c3d
000002a0: d058 afbe d53b c4be 7571 cc3b 8a05 af3e
000002b0: 94be ae3d d04b 923e 2d90 3f3d 1449 ab3d
000002c0: 7950 a0ba 11d5 e4bd 661d 8bbe a44d 933d
000002d0: f84b a53d 5444 623e 4adc 563e 0c87 35bf
000002e0: a0da e13e 1ab2 313f 258a 8d3e b8a5 37bf
000002f0: 4d92 9c3e af4a bfba cf17 e93e ed72 22bf
00000300: 64a4 f53d 3b8f d53d 0eaa 9abe 153a 77bc
00000310: 81ee 05bf 1443 533e 466a 90be 6c81 a03e
00000320: 54b0 55be 596e 49bd ad0f 1e3e 02f5 27be
00000330: 0cc9 a73e c91b a13e 722f 533e f737 35be
00000340: 0885 2abe 9027 bb3e 3cbd 5cbd 58fe f3bb
00000350: eb4e 4fbe b501 1fbd e2f8 47be c414 3e3d
00000360: 0a92 663d ec80 8f3c ac4d debd e23a c4bd
00000370: 9308 4bbe 132f 323e 35ed aebe ffe4 12bf
00000380: 8ca2 de3d c916 4ebe 07a1 583e 55be f9be
00000390: 4771 3b3e cd71 22be 0a5c 843e 0828 91bd
000003a0: 8144 1c3e 9ec0 0d3d 5229 46bd 4f68 98bd
000003b0: 7c4f a0be 30a9 993e 886d 163e 43ff 723e
000003c0: 0848 bcbd c4eb aebd f0a4 873e ca06 943c
000003d0: 2d94 82bc aca7 09bb 7466 503e 153d 843d
000003e0: fec7 41bd ed3a 9d3d acc4 dc3d b114 403d
000003f0: f7a4 c1be d75e 4cbe f774 cabe 6253 ba3e
0.18108594 0.27232808 -0.2206297 0.7339863 0.119798146 -0.2605415 -0.6909524 -0.09402965
0.043567333 0.5967789 -1.9171344 -0.14779155 0.049571365 -0.20001301 -0.5526196 0.084163174
1.5193844 -0.13347615 -0.043066144 0.063215844 0.22846884 0.3095315 0.32202172 -0.31491932
0.40127352 0.5644033 0.01389155 -0.46715435 0.8546373 -0.0015462395 0.27116594 -0.71510655
0.067688316 0.31561396 -0.48071447 -0.16846006 -0.3286332 0.088918984 0.25804 0.49964324
-0.34228265 0.071943216 0.09788768 -0.49987707 0.101992235 0.3688087 0.08368421 -0.61366487
-0.41772527 0.22518298 0.3414984 -0.30804446 0.30950433 -0.20305756 -0.014926718 -0.20986839
-0.39386386 0.30792007 -0.29890293 0.34400257 0.23075926 0.29509372 0.039421406 -0.50283366
0.0023346446 0.13765274 0.018064598 -0.019239763 -0.20455122 0.007274987 -0.33412817 0.4349699
0.53748554 -0.13575858 0.7456729 -0.35122994 0.5461138 0.47356704 -0.22093867 0.27833924
-0.32176232 -0.08367185 -0.26178324 -0.34726894 0.25465453 0.7088433 0.10324964 -0.32514897
0.50000495 -0.03156646 -0.26696894 0.098518014 0.5727081 -0.15274145 0.71995807 0.018235603
0.61498165 0.21041359 0.07943514 0.001934152 0.27091146 -0.09785512 0.119643085 -0.09510101
0.46134856 0.68145466 -0.43741462 -0.64656943 -0.122600526 -0.10706211 -0.42704433 0.36223865
0.8314122 -0.08468709 0.7907384 0.06163371 0.69558376 0.5883549 0.06896138 0.51667565
0.17814821 -0.05357037 0.033265803 -0.50016993 0.29713956 0.373862 -0.015842369 -0.4232199
0.48282245 -0.42593127 -0.66028655 0.08057503 0.7253512 0.5510208 0.6962966 -0.061998647
0.9712475 0.27413234 0.10710475 0.48242334 0.058440655 0.2847151 0.2023274 -0.4063764
-0.04955098 0.8325962 -0.0008356804 -0.042861514 -0.035655823 -0.0649134 -0.5431947 -0.26067555
0.42106998 -0.11866484 0.6789326 -0.038905885 0.8198696 0.47864553 -0.29267582 0.49178
-0.25742257 0.00040832587 0.14876173 -0.06124384 -0.15429944 0.28418392 0.025712237 0.038142297
-0.34247446 -0.38326898 0.006239111 0.34183913 0.08532444 0.28573465 0.046768356 0.08363548
-0.0012231014 -0.11173452 -0.27170867 0.07192543 0.080711305 0.22096378 0.20982471 -0.7090919
0.4411211 0.69412386 0.27644458 -0.7173724 0.3058037 -0.0014594401 0.45525977 -0.6345661
0.11994246 0.1042771 -0.30207866 -0.015089531 -0.52317053 0.20631057 -0.2820608 0.3134874
-0.20868045 -0.0491775 0.15435667 -0.16402057 0.32770574 0.3146651 0.20623568 -0.1769713
-0.1665231 0.3655362 -0.053891405 -0.0074460916 -0.20244949 -0.038819987 -0.19528535 0.046406522
0.056291617 0.01751753 -0.108546585 -0.095815435 -0.1982749 0.1740077 -0.3416535 -0.5738067
0.10870847 -0.2012588 0.21155177 -0.48778024 0.1830493 -0.15863724 0.2585147 -0.070877135
0.15260507 0.034607522 -0.04837925 -0.0744177 -0.31310642 0.30011892 0.1469022 0.23730187
-0.09193426 -0.085410625 0.26493025 0.018069644 -0.015939796 -0.0021004481 0.20351583 0.06456963
-0.047309868 0.07677255 0.107797 0.046894733 -0.3782117 -0.19958054 -0.39542362 0.3639174

lin.weight f4 [2, 20]
00000000: a249 8240 325a c4bf 1586 66c0 c0c5 1e3f
00000010: 9527 b53f b297 ea3e 7317 953f 8273 813f
00000020: 6a2e ea3c a4b0 76c0 d689 e3be 96ac 4ec0
00000030: 520c 443e f01d 48c0 afc9 38c0 92f8 1b3f
00000040: eb53 9ebf b70e 30c0 df36 4bc0 fa51 d8bf
00000050: c868 82c0 6ea5 da3f 1371 6d40 85aa 21bf
00000060: ddfb 9ebf 3e0f 51bf b4cc aebf 8c7e 63bf
00000070: c092 c5bd 9793 8440 4584 b33e 79cc 5a40
00000080: a698 69be 6f46 4740 61c5 5340 33da 0ebf
00000090: c077 a73f 43cb 4340 ed87 5f40 d4d1 f13f
4.0714884 -1.5340025 -3.6019337 0.6202049 1.4152704 0.4581886 1.1647781 1.0113375
0.028586585 -3.8545313 -0.44441098 -3.2292838 0.19145325 -3.1268272 -2.8873098 0.60926163
-1.236936 -2.7508981 -3.175224 -1.6900017 -4.0752907 1.7081735 3.7100265 -0.6315082
-1.2420613 -0.8166388 -1.365622 -0.8886497 -0.09647131 4.1430163 0.3506185 3.41873
-0.22812137 3.113674 3.308922 -0.55801696 1.308342 3.059281 3.4926713 1.889216

lin.bias f4 [2]
00000000: 7ddc b43e 2b08 3ebe
0.3532447 -0.18557803
