src/bbbp.pt (torch, 7311 bytes, 8 tensors)

conv1.bias f4 [20]
00000000: 2a77 ccbc 3b71 843e 65b2 4d3e ab00 ca3d
00000010: 567b 983d c6a2 ee3d eccf a4bd febf 213e
00000020: ed80 2d3d 1b22 3b3c eeac a6be a189 a0bc
00000030: 9eaa 4dbc 9d9f 73bd fadc bb3d 5adb 52be
00000040: 6753 0a3e 0d91 82bd 658a 07be 8fab 223e
-0.024959166 0.25867638 0.20087583 0.09863409 0.074453995 0.1165214 -0.080474705 0.15795895
0.04235928 0.011421706 -0.3255381 -0.019596877 -0.012552885 -0.05947839 0.09173007 -0.20591488
0.13508378 -0.063753225 -0.13236387 0.15885757

conv1.lin.weight f4 [20, 9]
00000000: 6827 a73d 98f4 6740 4b4f 16be 3593 363d
00000010: 64b8 c33f d2c6 4cc0 0963 27be 75fe 4d40
00000020: 50df 02bf 83fd 82be 4977 1fc0 f2b9 52bf
00000030: 2009 2a3f dfa1 883e 6926 8c3e c0ec 95bf
00000040: 4f9b d3bf 7a77 073f 7a5a 93bf 4238 a8c0
00000050: 4bed 853f 854e dcbe 1aef 0640 8675 dd3f
00000060: bfde 783e 091b a03f a77c 273f 14e1 72bf
00000070: 2121 dc3e 0026 343f 4606 61be 2b7c df3f
00000080: ee84 013f bce1 88bd 5e3c da3f 3d62 8e3f
00000090: e063 853e e145 0d40 5e30 833e 83dd b7be
000000a0: 6e35 973f 872e f0bf 5f18 cdbe 20f8 b9bf
000000b0: c95f 11c0 7360 5dbf 171b 82c0 3fdf 933e
000000c0: d9ac 193f e48f bd3f b4f4 a9be 11ea 6bbe
000000d0: 236f e5be 0863 bdbf e2e9 273f 676e 1bbf
000000e0: 3c43 ca3d ddbe 8cbf 74d4 883f 0d27 5940
000000f0: 69f7 fb3d ea1d 3bbf 2a09 5c3f 0851 5bbf
00000100: 50f2 4bc0 28b0 6f3f e5dd 593e 7749 d13f
00000110: 0464 b2bf 2d3e 02bf fa43 4dc0 d99d abbf
00000120: 5946 9a3b e89b f1bc 8b22 10bf beb7 753f
00000130: a2b0 2bc0 930f 8ebe 3225 d5be 7fb8 03c0
00000140: a248 8e3f aac7 28bf af71 b4be 5532 333f
00000150: 41e7 d2be e0b9 c43f edf4 4c3f 0d4c 873e
00000160: b292 c03f 658f 843f 28b8 e2bd d6a7 18c0
00000170: 87e1 8c3f 9fb3 1bbe 0714 a63f e58a 71bf
00000180: 8e97 4a3f 4d67 7abe 1a55 7c3f 3aba 99be
00000190: f94d 68c0 3cbe 273f 282a c2be 2520 ea3f
000001a0: b287 8640 2659 f63e dab3 b7bf 73b4 c13f
000001b0: 015a 243e 0868 4140 5feb 9abd 9ed6 453e
000001c0: a368 65bd d67f 9b3e 93ca 2dbf fa15 b6bf
000001d0: 3c35 893f a5e3 cabd 024b a6c0 84c7 203f
000001e0: 4fbc 9dbe a115 9a3f 5b61 1640 1c20 d43e
000001f0: c4c4 20c0 483f 0b40 841a 5f3e 71e7 40c0
00000200: 5f93 9bbf 7e28 563f 128c cc3f 6340 52bf
00000210: a94a a6bf fca2 d7bf 02ae 093f 318b 253f
00000220: fa42 2e3f d0e0 3abf b9f7 3fbd 35ce 0240
00000230: 8786 4d40 84d9 efbd bce4 263e cc5b 773e
00000240: 23f1 16bc 3f28 dbbe 7c65 1dbe 11cc a8bd
00000250: 9897 a2bf 8a99 08c0 d618 223f fb3d f2bf
00000260: 1fd9 5cc0 75c8 f93e d21c fa3d 7332 c4be
00000270: 88df 77bf 4f00 533f e0f0 8640 da5b 943e
00000280: 348e e43e 734b 433f d536 2c3f cc08 6b3f
00000290: 37a9 24bf 9252 6c3e 98e4 58bf 7156 79c0
000002a0: a7ab 0f3f 9025 92bf b07b 05c0 c2d2 63bf
000002b0: bc56 64c0 abd4 e43e 460a 09be 2aaf 2540
000002c0: 7eb1 663f c799 abbe 9944 7ebf b331 163e
0.08161813 3.6243038 -0.14678685 0.04457398 1.5290647 -3.199635 -0.16346373 3.2186558
-0.51122 -0.2558404 -2.4916556 -0.8231498 0.66420174 0.26685998 0.27373055 -1.1712875
-1.6531771 0.5291668 -1.1511986 -5.2568674 1.0463041 -0.43028656 2.1083436 1.730149
0.24303721 1.250825 0.6542458 -0.9487469 0.42994025 0.70370483 -0.2197505 1.7459768
0.5059346 -0.066836804 1.7049673 1.112373 0.2605276 2.20739 0.2562284 -0.35911188
1.181318 -1.8764199 -0.40057656 -1.4528847 -2.2714713 -0.86475295 -4.065807 0.2888126
0.6002937 1.4809537 -0.33194506 -0.23038508 -0.44811353 -1.4795847 0.6559125 -0.60715336
0.09876105 -1.0995747 1.0689836 3.3930085 0.12303049 -0.7309252 0.85951483 -0.8567052
-3.1866646 0.9362817 0.21276052 1.6350545 -1.3936772 -0.5087612 -3.207274 -1.3407546
0.004708093 -0.029493287 -0.5630271 0.95983493 -2.6826558 -0.27746257 -0.4162994 -2.0581357
1.1115916 -0.65929663 -0.35242984 0.69998676 -0.41192058 1.5369225 0.8006123 0.2642521
1.5044768 1.035626 -0.11070281 -2.385244 1.1006325 -0.15205239 1.2974862 -0.9435256
0.79137504 -0.24453469 0.98567355 -0.30024892 -3.629759 0.6552465 -0.37922788 1.829106
4.2040644 0.4811489 -1.4351761 1.5133194 0.16049959 3.0219746 -0.07564425 0.19320151
-0.056007992 0.3037097 -0.6788723 -1.4225457 1.0719371 -0.09906701 -5.196656 0.62804437
-0.3080773 1.2037851 2.349692 0.41430748 -2.5120096 2.1757374 0.21787459 -3.014126
-1.2154349 0.83655536 1.5980246 -0.82129496 -1.2991534 -1.6846614 0.5378114 0.64665514
0.6807095 -0.72999287 -0.046867106 2.0438359 3.211336 -0.1171141 0.16298193 0.24156111
-0.009212765 -0.42804143 -0.15370744 -0.082420476 -1.2702513 -2.1343713 0.63319147 -1.8925165
-3.450752 0.4878575 0.12212528 -0.3831974 -0.96825457 0.82422346 4.2169037 0.28976327
0.44639742 0.76287 0.6727117 0.918103 -0.643207 0.23078373 -0.84723806 -3.895901
0.56121296 -1.1417713 -2.0856743 -0.88993466 -3.5677938 0.44693503 -0.13382825 2.5888162
0.9011458 -0.3351576 -0.9932342 0.14667396

conv2.bias f4 [20]
00000000: 2d59 0e3c eac4 54be b930 703e f58f 30be
00000010: 5375 2b3e 80e4 9ebe d13b 1a3e 165a 833e
00000020: f5b4 433e 6f88 c33e d0ee d03b 8ebf 413d
00000030: 61b3 debe bed8 85bc 0b58 003e 3440 27be
00000040: 9e5a 9fbe ee55 82be cdbb 60be 88e7 f4bd
0.008688253 -0.20778242 0.23456086 -0.17242415 0.16743974 -0.31033707 0.1506188 0.25654668
0.19111998 0.38190028 0.006376125 0.04730182 -0.4349623 -0.016338702 0.12533586 -0.16333085
-0.31123823 -0.25456184 -0.2194664 -0.119582236

conv2.lin.weight f4 [20, 20]
00000000: 73d7 913f f6b5 a23f b665 62bf a9ba 083f
00000010: adbb 50bc 76f0 e7be e106 89be c8b3 77c0
00000020: 21a0 54bf cfdf b83e 7f69 e63e a7f4 433d
00000030: cb14 56bc 46f2 8ebf 7f70 d73f a78e 163f
00000040: a659 93bf f529 edbe 3828 48bf f204 43c0
00000050: 2fd4 993f 8927 1abe 118d 2e3d 84f5 ff3e
00000060: 7e01 ba3f 9a66 c0be 182b e53b 4c17 4dbf
00000070: 32f3 5bc0 1c7d d83e 44b9 c0bd 1519 42be
00000080: d334 96bc 1bba 72bf c288 0e3e 2085 9d3d
00000090: 201a f43e c07e 28be 3419 c33e f9b3 afbf
000000a0: 759d e73e 0037 3d3d ec0a abbe 4a0f 17be
000000b0: 56ed 0b3f 7ed5 233f 342d 983e 77a6 3cbe
000000c0: 9b5e a13d 2042 14be b008 c6bd ba9c 4ebe
000000d0: 6250 34be cac9 313e fb12 ec3c 5be7 fdbd
000000e0: 144d 87bd 65d9 eabe 9bda 0b3f ad69 2ebd
000000f0: aa2d cbbe 409f 3d3f 59a5 64bd aca0 c1be
00000100: 7299 0bbf dce6 44bf 276c ecbe 434c 31bf
00000110: 9b5b 683f fbd9 32be 8dcd a43b ab37 f43e
00000120: fbd7 1b3f de31 ff3e c246 8c3f 8541 4e3f
00000130: 9d7b 343d 976a 063e 9259 ce3e 2fb5 bbbd
00000140: 8f9f 343e 1976 0d3f f4af d1bf c0a9 82bf
00000150: a1ed 8b3f 3fd9 a1bf f196 563d c21e 2bc0
00000160: b3e9 ab3d 2a9f 4abf 1278 0c3e e558 bcbf
00000170: 8b84 243f c4ef efbf 539b da3e 23e9 4c3e
00000180: 42a8 183f a20c 0b3f 4545 063f 5d65 803e
00000190: 6d45 84bf 748c 2a3f 5f6d 323f 060b 67bb
000001a0: 0fc0 93bf 9c87 753f 31ea efbe d590 47be
000001b0: 008d 903e b624 f13d 0d17 f63d ce64 2d3f
000001c0: c1dd af3e cebc 8b3f 0316 fd3e d43a 49bf
000001d0: cc86 c23c ddac 8abf 95a7 ab3c 6573 093e
000001e0: 2169 edbe f6dc 99bf 287e 08be 5aad 62bf
000001f0: ce7c 6bbe 2111 6cbf ea4f 9c3f 9c10 cfbf
00000200: 230a 983e 7588 33bf 12cf b53d dd74 843e
00000210: 9883 b53d d2b0 743f 8ff6 a9be c5ea 2e3f
00000220: 6707 94bf 233e 9d3f d234 413e cb26 8cbf
00000230: 2185 7a3e 96f4 643f d91c 6fbf a0d5 d1bf
00000240: 1738 3bbf 1555 883f fc17 cfbf e971 53c0
00000250: 9171 4a3f 9dc3 84bf 434e 013e d7a7 aebd
00000260: c73d b5bd cbb2 9cbe 47eb 703f 96b6 70bf
00000270: 1fea 49bf 2b1e 3dc0 c8c0 76be 5d8e 04c0
00000280: 9e4e 29be fe67 18bf bc79 963f 0022 a33b
00000290: fed8 62bf 43aa b53d aa2a 00be d22a bb3e
000002a0: 6d24 39bd 2866 da3e 3e98 1f3d 2831 5dbd
000002b0: 169c 17bf 1e68 f93d b0df 19c0 7f13 d2bf
000002c0: 62c7 203f d192 5a3f ec34 b33e ad30 8d3e
000002d0: ea8a e33e f894 59bf 1f52 af3e 57ab 893e
000002e0: 9531 1cbf 313c d6be 1505 50bf fc67 0fc0
000002f0: 11aa 33be e8c8 a43e 6d56 ee3d d152 38bf
00000300: 3ab1 ae3e 1a19 a1bf 9ce1 02bf 2816 00bf
00000310: 9a18 d9bf 84a6 36bf 6bcd 913e ec00 e7bf
00000320: ec74 6dbd 588c a03e f4b1 223e 3582 8e3f
00000330: 2e1a 2a3e 731c df3e e4ed 8a3e 8558 063f
00000340: 8644 3d3e 4066 583f 0ade a9bd f4ed 693e
00000350: ac14 363e 0c16 5abe 724a 543f ea60 143e
00000360: 1242 c23d b190 cebf e94c e63e f6de 293f
00000370: 8381 823f ba9e 513e aa57 37bc 8706 203f
00000380: 6249 c2bd fecd 2dbf 8379 17bf 349f 19bf
00000390: ac44 8b3e 5e21 223f c131 0f3d e188 023e
000003a0: d737 e93e d0e8 e7bd de18 133f 61a5 803d
000003b0: 99ff 3dc0 0df6 6b3e c571 46c0 8e34 bfbe
000003c0: 3266 3a3f 995f 303f 1810 d43e 63e4 533f
000003d0: 46b6 7a3f c73e c93e 68b9 383f 30d1 463f
000003e0: 8269 1ec0 494a 2c3f 28a9 f43e ddc2 583f
000003f0: fd44 98bf 5a63 f43e d530 ed3e 8d48 973f
1.1393875 1.271178 -0.8843645 0.5340982 -0.012740058 -0.45300645 -0.2676306 -3.870348
-0.8305684 0.36108252 0.45002362 0.04784074 -0.013066481 -1.1167686 1.6831206 0.5881142
-1.1511734 -0.46321073 -0.7818637 -3.0471768 1.2017878 -0.15054144 0.042615 0.49992
1.4531705 -0.3757828 0.0069936626 -0.80113673 -3.4367185 0.4228295 -0.094103366 -0.1895488
-0.018335735 -0.94815224 0.13919356 0.07691407 0.47676182 -0.16454601 0.38105166 -1.3726798
0.45237318 0.04619503 -0.3340677 -0.14751926 0.5465902 0.6399764 0.29721987 -0.18422876
0.07879373 -0.1447835 -0.09669626 -0.20176974 -0.17608789 0.17362133 0.028817644 -0.12397643
-0.06606498 -0.45868984 0.5463044 -0.04258125 -0.39683276 0.7407112 -0.05582175 -0.37817895
-0.54531014 -0.76914763 -0.46176264 -0.6925699 0.9076478 -0.17465965 0.0050293864 0.4769872
0.60876435 0.49842733 1.0959094 0.80568725 0.0440632 0.13126598 0.40302712 -0.091654174
0.17638992 0.5525833 -1.6381822 -1.0208054 1.0931894 -1.2644423 0.052390043 -2.6737523
0.08394184 -0.79149115 0.13717678 -1.4714628 0.64264745 -1.8745046 0.42696628 0.2001081
0.5963174 0.5431615 0.52449447 0.25077334 -1.0333687 0.66620564 0.6969814 -0.0035254373
-1.1542987 0.9591005 -0.4685836 -0.19488843 0.28232574 0.1177458 0.12016115 0.6773194
0.34348872 1.0916994 0.49430856 -0.7860539 0.023745917 -1.0834004 0.020953933 0.13422926
-0.4636927 -1.2020557 -0.13329375 -0.88545763 -0.22996828 -0.92213637 1.2211888 -1.6176944
0.29695234 -0.7013009 0.08877386 0.2587041 0.0886299 0.95582306 -0.33195922 0.6832698
-1.1564759 1.2284588 0.18867806 -1.0949339 0.24464847 0.8943571 -0.93403393 -1.6393318
-0.7313246 1.0650965 -1.6179194 -3.3038275 0.7907954 -1.0372196 0.1262751 -0.08528107
-0.08849674 -0.30605158 0.94109005 -0.94028604 -0.78872865 -2.9549663 -0.24096978 -2.0711892
-0.16533896 -0.5953368 1.17559 0.0049784184 -0.88612354 0.088703655 -0.12516275 0.36556107
-0.045200754 0.42656064 0.03896355 -0.054001957 -0.59222543 0.12178062 -2.4042778 -1.64122
0.62804234 0.85380274 0.35001314 0.275762 0.4444192 -0.84992933 0.3424234 0.26888534
-0.61013156 -0.41842797 -0.81257755 -2.2407217 -0.17545344 0.3218453 0.11637578 -0.7200137
0.34119588 -1.2585785 -0.511255 -0.5003381 -1.6960633 -0.7134783 0.28477034 -1.8047156
-0.057972834 0.31357074 0.15888196 1.1133486 0.1661155 0.43576393 0.2713462 0.5247882
0.18483171 0.8453102 -0.08294304 0.22844678 0.17781323 -0.21297473 0.82926095 0.14490095
0.09485258 -1.6137906 0.44980553 0.66355836 1.0195774 0.20470706 -0.011190334 0.6250996
-0.09486653 -0.67892444 -0.5916979 -0.6000855 0.2720083 0.63332164 0.03495956 0.12747528
0.45550415 -0.11323702 0.5745982 0.062815435 -2.9687254 0.2304308 -3.100694 -0.37344784
0.7281219 0.6889587 0.4141853 0.82770365 0.9793438 0.39305708 0.7215791 0.77662945
-2.4751897 0.6730085 0.47785306 0.8467234 -1.1896054 0.4773205 0.46326318 1.1819016

conv3.bias f4 [20]
00000000: 7dfe 463e 4e0f 05bd ccf9 f23c 7f43 56bd
00000010: 5582 99be 27db 253e 5080 dabd dd61 893d
00000020: b375 b93d 6c83 3cbe a2df 14be 1519 673e
00000030: 3bc1 aebd c916 d5bc 7966 863b a333 9d3e
00000040: e482 62bc eca3 8dbe 0a1c a4be 2454 993d
0.19433017 -0.0324853 0.029660128 -0.052310463 -0.29982248 0.16196881 -0.10669005 0.06708119
0.090556525 -0.18409508 -0.14538434 0.22568162 -0.085329495 -0.026011841 0.004101571 0.30703458
-0.013825152 -0.27664125 -0.32052642 0.07486752

conv3.lin.weight f4 [20, 20]
00000000: 7b60 2abf d9e4 3e3f f22d 21bf 74de c53e
00000010: 62e5 a83e 3497 523e 1666 35bf 53e3 f23e
00000020: 0726 ef3e 19ed 1bbf 83e3 e93d 08de 94be
00000030: 8063 7cbf a3a6 8abe 8b87 533d 2f32 32bf
00000040: feeb 51bf 5bf8 e63d 65de 32c0 e8e2 89be
00000050: a90b 55bf 617c a13f 6c67 563e c5a4 c4bd
00000060: 6cb7 8fbf 5c74 e9be 3eff 843e b6ef 8cbe
00000070: 20d2 7d3e 3c43 003d 7894 5ebe 51c9 21bf
00000080: b77e 0bbf a0df dd3d a9a9 cebc 18c2 7b3e
00000090: d8df bd3e 3d71 c43f 3daa 173f f42c 7bbc
000000a0: b81f 05be 1db7 c03e 61da 0ebf e312 e13e
000000b0: f743 413f 5032 343e 52da 0ebf a902 d43e
000000c0: a330 9cbe ee17 fe3d 2193 6fbf a490 b13e
000000d0: cb69 d73e be66 c5be 9249 ea3e 5087 42be
000000e0: 6963 22bf 56f1 d83f 1848 02be a731 a53e
000000f0: f529 b73e 70b5 1dbf 8b8e 943e 9a0c ddbe
00000100: ee96 663f bc32 24bf 5dfa 053f c349 673f
00000110: 9128 98be c581 6abe 01e4 eabd a178 78bf
00000120: 5b41 493f 1539 033e d0a7 f33e 9076 d8be
00000130: bd4b 33bf e6d5 d1be 2211 a3bf e4c2 8bbf
00000140: 4b33 4ebe 9c44 063f b144 fc3c 3a7c aa3f
00000150: fd9a cf3d 7f46 803f 1a9b 113e 5448 aabd
00000160: 24e3 27bf 2319 8dbe 7219 7e3e f8c4 a13f
00000170: 9d70 d2bd fc67 803e 15bb fa3e 237f 053e
00000180: 64af f2bd f96c 93bf 8213 933e 1104 a4be
00000190: af74 28bf 5f43 b1bf 48e6 10bf bc0c 42bf
000001a0: 18f4 ee3d d518 2fbe d26b 6cbe 9196 5c3f
000001b0: cf27 35be dd33 953f 2414 0dbf ab9b 113f
000001c0: a024 843e bd35 88bf a4d2 37bd 5943 a9bf
000001d0: 734c 87bf 1bee adbe 62bf 9c3e b8c2 553f
000001e0: 286d a0be 8ce1 3dbf 8829 0ebf 0d34 623e
000001f0: d12d 463f cde8 0d3e c174 503f b405 34bd
00000200: 34b9 e3be a3f2 e1be f132 28bf d152 053f
00000210: d58b 843e fee3 52bf f65a 143f fb26 5e3f
00000220: c728 90be 092b 5fbd 9828 ae3f 8271 92bf
00000230: 5f7f e93f d49e cb3e 40c4 17bf 9cc1 dc3e
00000240: ab1f 32bf a1f1 d83e ec5a 3ebf 5872 503d
00000250: e5bc d8bf ac68 6bbd c48c 88bd bbe0 c13f
00000260: b10c e6be a469 eabe 30bc d63d e90f 943d
00000270: 4062 033f 8854 26be ef25 333f fcbc 04bf
00000280: 883d d93c af1a 41c0 ca0e 0b3e a2a1 94bf
00000290: b536 e33d 1095 f8be 4e27 773e 1bd7 3bbe
000002a0: 2486 523e 93b3 8abf e18f 0d3e e527 0a3f
000002b0: 19a1 353e b7e4 963e 00bb aabe 439d 443f
000002c0: f6b3 bf3e b0b1 70bf 8d24 de3f f89b 143f
000002d0: 3616 ffbe 51de 6d3f d29e b4be 5318 ea3e
000002e0: eab9 16bd 7218 173f 1e3e b93e 5b82 aa3f
000002f0: cd6b 45bf 728a 38bf b5f3 28bf dce5 7a3f
00000300: 9ecd c93e 7525 a8be 48d7 203e 903f 95be
00000310: e6bf 963e 8490 6fbf 479e 3d3e 9b9b 863e
00000320: ff92 49c0 0de2 b13f 48f9 3cbe bae2 763f
00000330: f78c cf3e 8be8 0e3f 9bc1 b83d 6199 ac3e
00000340: 9148 69be e035 9bbf c13f 0d3e 0c50 d03f
00000350: 831b 003f 6308 273e 4ac6 953f 43be 4c3e
00000360: 3fa3 9c3f 5d10 b2be 65ca eebe 5d86 f5be
00000370: 5c6a 6ebe 89d7 093f 6487 8cbe da30 f2be
00000380: d31d 4a3f efe2 393f e636 823f 24a4 b3bd
00000390: e9e0 3c3f c342 c1bf 24af 6abf 0ff7 91bf
000003a0: fd35 d33f 4977 e3be 311c 263e f93e 1abf
000003b0: 8e91 f0be 6ab1 9f3f eb2b c5be f356 83bf
000003c0: 6094 bdbe ccd1 06bf e03d 8abe f3fa aa3e
000003d0: c78c af3e 97dd 783e c287 1d3f 67ba 16be
000003e0: 756a 2cbf 2d93 a4bd bf80 fabe e00e 1a3f
000003f0: 0b6b 403e 7dd1 ebbe 19b3 cd3e 44a8 b03e
-0.6655347 0.74567944 -0.6296073 0.3864628 0.32987505 0.20565492 -0.70858896 0.4743906
0.467087 -0.6090866 0.114203475 -0.29075646 -0.98589325 -0.2708026 0.051642936 -0.69607824
-0.8200072 0.11277839 -2.794824 -0.26930928 -0.83220917 1.2616082 0.2093789 -0.0960174
-1.1227851 -0.45596588 0.25975984 -0.27526635 0.24787188 0.03131412 -0.21736324 -0.6319781
-0.54490227 0.10833669 -0.025227385 0.2458576 0.37084842 1.5347058 0.5924414 -0.015330542
-0.13000381 0.37639704 -0.5580197 0.43959722 0.7549433 0.17597318 -0.5580188 0.4140828
-0.30505857 0.12406908 -0.93583876 0.34680665 0.420729 -0.3855495 0.45759255 -0.1899693
-0.6343294 1.694865 -0.12722814 0.32264444 0.35774198 -0.61604977 0.29015002 -0.43173677
0.9007405 -0.64139915 0.5233515 0.90346926 -0.2971845 -0.22901066 -0.114692695 -0.97059065
0.7861535 0.12814744 0.47588968 -0.42277956 -0.7003744 -0.40983504 -1.2739604 -1.0918851
-0.20136754 0.5244844 0.030794473 1.3319161 0.101369835 1.0021514 0.14219323 -0.08314577
-0.65580964 -0.2755824 0.24814394 1.2638235 -0.102753855 0.25079334 0.48970857 0.1303678
-0.11849859 -1.1517631 0.2872582 -0.32034352 -0.65803045 -1.3848685 -0.5660138 -0.7580068
0.11667651 -0.17099316 -0.23088005 0.86167246 -0.17690967 1.1656452 -0.5510886 0.56878155
0.25809193 -1.06414 -0.044878617 -1.3223678 -1.0570205 -0.33970723 0.30614763 0.8350024
-0.3133328 -0.7417228 -0.5553212 0.22090168 0.7741366 0.13858338 0.8142815 -0.04395075
-0.44477236 -0.4413043 -0.6570273 0.5207949 0.25887933 -0.8237914 0.57951295 0.8677823
-0.2815611 -0.0544844 1.3606138 -1.144089 1.8241996 0.39769614 -0.5928383 0.43116462
-0.6957957 0.42371848 -0.74357486 0.050890297 -1.6932646 -0.05747287 -0.06667474 1.5146707
-0.44931558 -0.45783722 0.10485113 0.07229597 0.5132179 -0.16243184 0.6997976 -0.5185087
0.026518598 -3.0172536 0.1357986 -1.1611826 0.11094419 -0.48551226 0.24136087 -0.18343775
0.20558983 -1.0836052 0.13824417 0.53967124 0.17737235 0.2947137 -0.33345795 0.7680246
0.37441987 -0.9402113 1.7354904 0.5805049 -0.49821633 0.9291735 -0.3527742 0.45721683
-0.036798395 0.59021676 0.36180204 1.3321031 -0.77117616 -0.7208625 -0.6599687 0.9800699
0.39414686 -0.32841077 0.15707123 -0.29150057 0.29443282 -0.9357989 0.1851741 0.26290593
-3.149597 1.389711 -0.18454468 0.9643971 0.40537235 0.5582358 0.09021302 0.3371077
-0.22781588 -1.2125816 0.13793851 1.6274428 0.5004198 0.16311793 1.1701138 0.19994454
1.2237319 -0.3477811 -0.4663879 -0.47954074 -0.2328276 0.53844506 -0.27447045 -0.47302896
0.7895176 0.726119 1.0173004 -0.08771542 0.73780686 -1.5098499 -0.91673493 -1.1403521
1.6500851 -0.44426945 0.16221692 -0.6025234 -0.4698605 1.2476017 -0.3851007 -1.026091
-0.37027264 -0.52663875 -0.27000332 0.33394584 0.34287092 0.2430328 0.61535275 -0.14719544
-0.6734994 -0.08035884 -0.4892635 0.6017895 0.18790834 -0.46058264 0.40175703 0.34503376

lin.weight f4 [2, 60]
00000000: 97d7 bb3f dcbd a23f f4b9 893f 8302 79bf
00000010: c703 05c0 75ef 27c0 07e2 d53f ec81 21c0
00000020: 4d56 2ebe 517b 08c0 058c 17c0 0111 15c0
00000030: 82a7 a33f 697c 3140 b972 7c3f fe27 d83f
00000040: 3099 16c0 11fe 08c0 939f 8ebf e9e5 3fc0
00000050: f503 a1bf 293f 9f3f fae5 e1be 750a 4d3e
00000060: 6d57 6f3f fc66 043f fea9 acc0 8e52 7e3f
00000070: 301b 27c0 225a 0d3f 0225 c73e bd4a 75bf
00000080: 9e73 a7c0 6ab8 4ebf 6ad8 733e 7a95 05c0
00000090: a545 1b3f 8c07 ecbd 7381 5a3c a51e 133e
000000a0: 23e1 553d e512 7c3e 53a0 8abd 5677 ba3e
000000b0: 26cb 0f3e 4dfc 0d3e 61fb f13f 1e34 113e
000000c0: ba3c 4abe 725c c5bc 7027 4a3e be9d 6d3e
000000d0: 7baf 9f3f 58e6 fabb 8efe b43e dc05 9b3d
000000e0: 6009 f83d 6128 753d ad01 7bbd 0c95 96bb
000000f0: 1910 d0bf 4bea 88bf 3612 80bf ab0c 543f
00000100: 4059 0340 80ce 1b40 ed76 f0bf fab4 2a40
00000110: 33b1 233e f47f 0b40 f6ea 1340 1ae1 1340
00000120: b2af b8bf 6d23 34c0 fe92 45bf 556a c9bf
00000130: 8f49 1940 42fa 1040 41ef 963f ed47 4040
00000140: d829 b83f 9de1 a4bf 0dc2 b43e 14dd 59be
00000150: 5ee0 67bf 9f99 2fbf bd25 a540 7efc 91bf
00000160: bc48 1f40 b221 e3be 4bc3 dbbe 3182 743f
00000170: 0ac3 a840 5d58 613f b3a1 e1bd 10a5 1240
00000180: 8096 40bf ea66 e63c 40d7 b8bc a71f aabd
00000190: c2dd 133e d155 41be 99bf 033e 499b dfbe
000001a0: c441 623d 1469 2bbe 2fde febf 4fe1 74bd
000001b0: ca80 1c3e a217 053e e97e c8be 980d f7bd
000001c0: e425 9fbf 93ec a23d 5dd1 06be afd5 24bd
000001d0: 5677 7abe 0817 d73d 0423 1c3e 2b80 a5bb
1.4675168 1.271419 1.0759873 -0.9726946 -2.0783556 -2.6239903 1.6709603 -2.5235548
-0.17025109 -2.1325266 -2.367921 -2.3291628 1.2785494 2.7732184 0.9861255 1.6887205
-2.3530998 -2.140507 -1.1142448 -2.9984076 -1.2579333 1.244115 -0.4412077 0.2002352
0.93492776 0.5171964 -5.395751 0.9934472 -2.6110344 0.55215657 0.38895422 -0.95817167
-5.2328634 -0.80750144 0.23813024 -2.0872483 0.60653144 -0.11524877 0.013336527 0.14367159
0.05221666 0.24616583 -0.06768861 0.3641917 0.14042339 0.13865776 1.890484 0.14180037
-0.19749728 -0.024091933 0.19741607 0.23204705 1.2475427 -0.0076568536 0.3535046 0.07569477
0.12111163 0.05985296 -0.061280895 -0.0045954045 -1.6254913 -1.06965 -1.0005558 0.8283183
2.0523224 2.4344788 -1.8786293 2.667296 0.15985565 2.1796846 2.3112159 2.310614
-1.4428618 -2.8146622 -0.7717742 -1.5735575 2.3951147 2.2652745 1.1791764 3.00439
1.438777 -1.2881352 0.353043 -0.21275741 -0.9057673 -0.6859378 5.1608567 -1.140518
2.4888144 -0.44361645 -0.42922434 0.95511156 5.2738085 0.88025457 -0.1101717 2.2913246
-0.75229645 0.028125245 -0.022563577 -0.083068185 0.14440063 -0.18880393 0.12866057 -0.4367316
0.0552385 -0.16739303 -1.9911555 -0.059785184 0.15283504 0.12997296 -0.39159325 -0.1206314
-1.2433438 0.07955279 -0.13165803 -0.040242847 -0.24459586 0.1050244 0.15247732 -0.005050679

lin.bias f4 [2]
00000000: f678 03bf e456 9e3e
-0.51356447 0.30925667
