src/citeseer.pt (torch, 951391 bytes, 4 tensors)

convs.0.bias f4 [64]
00000000: f530 abbc 28ac 0d3e ebf4 1f3e fbac 3a3e
00000010: 2418 083e d356 56bc c2ae 6b3e f868 303e
00000020: b8b0 87bc 4eef acbc 0402 8a3e 0bc8 423e
00000030: 8709 0c3e f9c7 af3e c157 e3bb 86e6 283e
00000040: 7d21 473e f130 453e 620e 233e e7e1 933e
00000050: 8a6e 2c3e ed39 773d 29e3 553d fa42 373e
00000060: 0df9 163e 1a95 003e 1d83 6abc 8c9f 0cbd
00000070: 8fe4 163e 85d4 903e aa39 9f3e 5b85 5e3e
00000080: 9336 bc3d 277b 3b3e 8c0c bb3d fef5 843e
00000090: 0b9a 883e f0c0 483e 5e63 3e3e c434 313e
000000a0: 8ee7 693d 1c76 093e 6b52 133e c0a0 253e
000000b0: 2234 583e 81a9 293e 41a0 913e 10fb 243e
000000c0: 8f9f 373e 9060 2dbd 3a22 0d3e dbfb e53d
000000d0: f77d c83e 865e 223e 0b6a f13d fd6a f2bb
000000e0: 2010 323e eed0 9ebb 533e 383e a90e b23d
000000f0: 2594 2d3e 7b28 323e 0701 b13d 90f4 6c3d
-0.020897368 0.13835204 0.15620773 0.1823005 0.13290459 -0.013082224 0.23015884 0.17227542
-0.016563758 -0.021110203 0.26954663 0.19021623 0.1367551 0.34332255 -0.0069379513 0.16494188
0.19446369 0.19256951 0.15923455 0.28883287 0.16839042 0.060357977 0.05221859 0.17896643
0.14743443 0.12556878 -0.014313486 -0.034331843 0.14735626 0.2828714 0.31098682 0.21730559
0.09190097 0.18308698 0.091332525 0.25968927 0.26680025 0.1960485 0.18592593 0.17305285
0.057105593 0.13423961 0.14386909 0.16174603 0.21113637 0.16568567 0.28442577 0.16111398
0.1793196 -0.042328417 0.13782588 0.11229678 0.39158604 0.1585637 0.11787804 -0.007398008
0.17388964 -0.0048466837 0.17992525 0.086942025 0.16951044 0.17398255 0.08642774 0.05785042

convs.0.lin.weight f4 [64, 3703]
00000000: 8342 26b5 e7dc a3b4 11e9 2a34 e27c 76b4
00000010: b0a4 e6b2 9212 2034 ea35 29b5 cca3 c0b4
00000020: 1036 5d33 4040 d832 78f6 3fb4 c822 9d34
00000030: 7afe 28b4 121c 30b5 d059 4635 1435 9333
00000040: beb5 f4b4 3a48 6634 e834 6033 8d2f 01b5
00000050: e7f4 e334 c829 81b5 e8bd 92b5 4ada a2b3
00000060: 6447 88b5 6985 0935 c049 1135 9c0e d933
00000070: 20ec 5db2 c4b4 a8b3 69e6 0fb5 8af6 1434
00000080: d54a 56b5 c6be abb4 602b 5635 9015 6934
00000090: 4854 3a33 9f57 2b35 fee6 5fb5 dba0 1b34
000000a0: f8e4 54b5 f9f3 96b4 3ada bcb4 9a0f f1b3
000000b0: 42ae 8735 481a a4b3 7c76 4334 d4de 0235
000000c0: 5f7a 6235 6197 8534 cf76 49b4 016a 28b4
000000d0: 6ef7 dfb4 dc45 f7b4 eee5 5235 466c bf34
000000e0: e926 85b4 fc26 2b35 f8bb bb33 a86d d234
000000f0: 442d b533 4eec 8cb5 318f 88b4 6d04 1a35
00000100: 3d91 be34 81ee 20b6 460d f834 f0f9 4335
00000110: ee7a 1534 f20a 0ab5 f783 aab4 5ebf 83b4
00000120: 33cb bbb4 7cc4 dd34 965d 9b34 5e5c 3ab5
00000130: e294 8435 08d9 0db5 a4c1 55b4 cec6 88b4
00000140: b086 4932 7fd9 49b5 bea5 9835 c5ac 2635
00000150: 3eef 7234 e67b 73b5 280d b833 b9b8 18b5
00000160: 9474 a4b4 61fa 9934 330c 2ab4 e885 8034
00000170: 02e2 28b4 73bd bb34 cbf0 10b5 8063 7db3
00000180: 4bca ae34 d60c cd34 1cbe 03b5 1ac4 99b4
00000190: 687d d633 9ad6 89b4 a9e6 6335 ba27 bfb4
000001a0: 1411 8e33 3791 ccb4 c97e 2ab4 6b53 a9b4
000001b0: a350 c2b3 854f 8db5 049d a333 9a2b 4c35
000001c0: be30 99b4 ccc5 08b5 f6b7 5935 ea58 19b5
000001d0: 5a46 81b4 58ff aab4 241c 2d35 7ee5 f334
000001e0: e216 5034 778c 85b5 ba9b 4eb4 bf7b 4eb5
000001f0: 60c2 82b3 723b 75b5 248e 0034 ae85 35b5
00000200: d4e8 1235 fc07 1134 4b05 1335 fa6f 0db5
00000210: dbc9 8334 5c75 40b4 3264 18b5 2039 5bb5
00000220: 5a9b cd34 220c aab4 109c 99b2 fc14 c9b4
00000230: e5ef 0435 36c1 e1b4 d2ed 17b4 a08d 8b34
00000240: b98e 5d34 e343 d1b4 603a 71b4 5a8e 2934
00000250: c41e 8135 5435 40b4 f978 d7b4 3992 b934
00000260: 607b 17b3 8cb0 a434 e2ec 4f35 6a15 0d34
00000270: ae3f 92b5 4033 6f31 20b6 29b2 5006 9332
00000280: f1e2 0135 40da dfb3 8595 17b5 8b99 98b4
00000290: 8237 adb4 3c16 6f35 6085 af35 80f0 23b4
000002a0: 1243 90b4 32c3 d8b4 f245 63b4 1c3b 4fb5
000002b0: d61c 4834 864f 1ab5 067e 4e35 ebf3 59b5
000002c0: b831 8134 6498 76b5 113d a934 c219 95b5
000002d0: 3cf4 aa34 8f82 80b4 2508 5035 cf16 3fb5
000002e0: a5e1 8434 2ea0 8233 0610 3535 dc8d c734
000002f0: b93f 9bb4 0925 c434 ed74 efb4 b6fe adb3
00000300: 64e6 9434 0a8a fa34 f45b a8b3 eb67 96b4
00000310: c660 a5b4 ba04 e5b4 7bb0 5c35 ea04 b834
00000320: 4689 89b5 a0ba 72b3 56ec a734 d4a7 ea33
00000330: 5f77 6cb4 3097 90b4 52eb 5135 2660 d134
00000340: 06c3 5535 15a0 3e35 d289 0034 63cf cfb4
00000350: b428 37b4 a294 13b5 69e8 14b5 b881 4b35
00000360: 4170 d5b4 bb67 6635 6972 ef33 649a fc34
00000370: 2a1b 0c34 378a 10b5 b816 03b4 3829 1134
00000380: 5e33 5c35 00bd ddb0 7c2c 4fb4 0289 acb4
00000390: a2a4 8734 6d6c b234 9e20 dcb4 7bf8 9434
000003a0: 3a00 34b4 7433 ceb3 154e 9534 76a5 2d34
000003b0: 324a 8a35 42a3 1bb5 5032 df32 d4f0 6fb3
000003c0: 81ff f634 f2e6 76b4 d774 6d35 ca44 8335
000003d0: f0a4 bab3 263c 2435 cc3d e8b4 97e4 da34
000003e0: d289 ea34 d4d9 4e35 78c3 91b4 0a79 5db4
000003f0: 5365 ec34 98a8 1a35 e474 0334 ce4a 22b4
-6.1936606e-07 -3.0521844e-07 1.5917273e-07 -2.2955967e-07 -2.6850415e-08 1.4907917e-07 -6.303586e-07 -3.5881965e-07
5.1504742e-08 2.5174927e-08 -1.7877926e-07 2.9268836e-07 -1.5738797e-07 -6.5605957e-07 7.389144e-07 6.854876e-08
-4.5580776e-07 2.1446695e-07 5.2202182e-08 -4.812544e-07 4.2460235e-07 -9.623409e-07 -1.0933118e-06 -7.5834194e-08
-1.0153567e-06 5.1230614e-07 5.412403e-07 1.01075074e-07 -1.2917582e-08 -7.855991e-08 -5.360694e-07 1.3873264e-07
-7.983011e-07 -3.1990038e-07 7.978433e-07 2.170766e-07 4.3383153e-08 6.382997e-07 -8.341011e-07 1.4494019e-07
-7.930935e-07 -2.811719e-07 -3.517651e-07 -1.1225275e-07 1.0109e-06 -7.6416256e-08 1.8203895e-07 4.875303e-07
8.4369634e-07 2.4883323e-07 -1.8762806e-07 -1.5684783e-07 -4.1717016e-07 -4.6058165e-07 7.856569e-07 3.5655302e-07
-2.480149e-07 6.3759194e-07 8.7420574e-08 3.9195334e-07 8.436703e-08 -1.0499587e-06 -2.543616e-07 5.737591e-07
3.5495933e-07 -2.3980685e-06 4.6203257e-07 7.300687e-07 1.3921428e-07 -5.1424934e-07 -3.1760985e-07 -2.453989e-07
-3.497931e-07 4.130742e-07 2.8939093e-07 -6.942481e-07 9.878097e-07 -5.2842415e-07 -1.9907617e-07 -2.5476623e-07
1.1730364e-08 -7.5194833e-07 1.137312e-06 6.209123e-07 2.2625042e-07 -9.070485e-07 8.570561e-08 -5.689322e-07
-3.0632202e-07 2.8680645e-07 -1.5836922e-07 2.3939288e-07 -1.572844e-07 3.4969307e-07 -5.399458e-07 -5.8996648e-08
3.2557213e-07 3.8193565e-07 -4.907795e-07 -2.8641153e-07 9.987963e-08 -2.5674382e-07 8.4899744e-07 -3.5605427e-07
6.615497e-08 -3.810362e-07 -1.5878608e-07 -3.1539398e-07 -9.048497e-08 -1.0528462e-06 7.61884e-08 7.605937e-07
-2.8533935e-07 -5.095178e-07 8.11065e-07 -5.712633e-07 -2.407931e-07 -3.1850755e-07 6.448847e-07 4.5429255e-07
1.9379834e-07 -9.950153e-07 -1.9241898e-07 -7.6921054e-07 -6.088953e-08 -9.1356117e-07 1.197264e-07 -6.7622284e-07
5.472805e-07 1.3507082e-07 5.476947e-07 -5.268954e-07 2.454752e-07 -1.7924089e-07 -5.6770216e-07 -8.1666985e-07
3.829726e-07 -3.1673795e-07 -1.7882513e-08 -3.7454436e-07 4.9522924e-07 -4.2050095e-07 -1.414949e-07 2.5993813e-07
2.0634151e-07 -3.8978678e-07 -2.2466111e-07 1.5791139e-07 9.620203e-07 -1.7900794e-07 -4.013489e-07 3.4565326e-07
-3.5269636e-08 3.0675835e-07 7.745822e-07 1.3139439e-07 -1.0896381e-06 3.480821e-09 -9.878505e-09 1.7115923e-08
4.838649e-07 -1.0423946e-07 -5.6469463e-07 -2.8423923e-07 -3.2264148e-07 8.9066793e-07 1.3077333e-06 -1.5268051e-07
-2.687089e-07 -4.0375159e-07 -2.1166468e-07 -7.7199525e-07 1.8636942e-07 -5.748519e-07 7.692437e-07 -8.1193747e-07
2.4064298e-07 -9.18639e-07 3.1523135e-07 -1.1108862e-06 3.1842671e-07 -2.3936852e-07 7.749789e-07 -7.1186236e-07
2.4751094e-07 6.082733e-08 6.745107e-07 3.7169855e-07 -2.8917364e-07 3.6534792e-07 -4.4602294e-07 -8.102272e-08
2.773478e-07 4.6666565e-07 -7.839836e-08 -2.8015288e-07 -3.0804057e-07 -4.2658013e-07 8.22132e-07 3.4276246e-07
-1.0247247e-06 -5.651475e-08 3.127813e-07 1.0927002e-07 -2.202264e-07 -2.6932094e-07 7.8201003e-07 3.899924e-07
7.963248e-07 7.1013466e-07 1.1971068e-07 -3.8707648e-07 -1.7058011e-07 -5.4978057e-07 -5.54725e-07 7.581216e-07
-3.9756017e-07 8.5832625e-07 1.1150116e-07 4.7050992e-07 1.3048398e-07 -5.384531e-07 -1.2208591e-07 1.3519173e-07
8.2031136e-07 -1.6133583e-09 -1.929456e-07 -3.2137183e-07 2.5265496e-07 3.3233974e-07 -4.1001925e-07 2.7747942e-07
-1.6763889e-07 -9.601982e-08 2.7810225e-07 1.6172075e-07 1.0303395e-06 -5.797957e-07 2.5983496e-08 -5.5865556e-08
4.6006974e-07 -2.2994553e-07 8.8459404e-07 9.780281e-07 -8.691302e-08 6.118229e-07 -4.325833e-07 4.0771985e-07
4.3686174e-07 7.705796e-07 -2.7150577e-07 -2.0626263e-07 4.403215e-07 5.7614807e-07 1.224285e-07 -1.511464e-07

convs.1.bias f4 [6]
00000000: 0e24 d3be 8bb0 2ebe d7ad 843f 662f 9ebf
00000010: f3e9 c4be 82d7 243e
-0.41238445 -0.17059533 1.0365552 -1.2358215 -0.3845974 0.16097835

convs.1.lin.weight f4 [6, 64]
00000000: 49fb f5b5 ec52 fabf 657b 9ebf 459c b9bf
00000010: dfcb a5bf 89d7 b9b4 fb35 933f 673b 9e3f
00000020: b603 b6b6 bed6 0236 2487 a83f 9d26 923f
00000030: fae6 ccbf 15a9 a1bf fc58 deb5 29f6 aa3f
00000040: b80a b73f 50e8 9d3f 718e 9ebf cbf7 9b3f
00000050: 732a e0bf 4277 ba3f 1e52 963f e19e bb3f
00000060: c050 ed3f 5f5a ad3f 8478 2db6 7c5f cdb6
00000070: 701c be3f 91b0 a5bf 0124 97bf 6162 a13f
00000080: bcb7 c53f de35 82bf 96d9 5dbf 6762 bdbf
00000090: ca88 b13f cefd bd3f e0bb 9c3f e237 a4bf
000000a0: 9ac2 b03f b8b0 5abf ed71 aa3f 3f1a a3bf
000000b0: ecc0 9b3f 4a93 a3bf 8cdf b2bf 95ba 91bf
000000c0: 98b7 ac3f 23bb d6b5 9307 d4bf fd48 5ebf
000000d0: ed6c a7bf 1c2c 92bf 430c 553f 9835 f335
000000e0: 253a adbf 84bc 27b6 6adb 98bf 4d2c b73f
000000f0: 7457 9c3f 68e7 69bf a02e be3f 12e0 a93f
00000100: 5c5c 9735 3bd6 01c0 132f c03f f924 a5bf
00000110: 7e5c adbf c212 fd36 65b1 9f3f e070 b73f
00000120: 75a0 ae35 7c97 8fb5 f479 b83f 8028 a63f
00000130: fb75 a33f f747 b03f 5764 c235 0193 c33f
00000140: c0d0 acbf 1d89 ba3f 9624 ab3f 3759 9ebf
00000150: ccb7 ab3f 97d5 acbf 8d53 bfbf 4a6e a8bf
00000160: 0b5f fabf b43e b03f 01cb 26b6 57db 0737
00000170: 7663 a6bf 9af2 a93f 32d1 a5bf 95db b4bf
00000180: 9c15 c0bf 11ad 9abf 3fac 9dbf bd43 c13f
00000190: 0581 a4bf a757 91bf 0a26 ac3f 2e99 9bbf
000001a0: 7453 cabf 37e8 a0bf c4ad ad3f 06ae be3f
000001b0: e0d2 aabf 6793 a83f b5b2 b33f 4ab6 91bf
000001c0: 2f17 b03f 9aa8 be35 0152 a43f 2c9f 99bf
000001d0: 6af9 b53f ca0e 86bf a12e 0f3f e271 4bb6
000001e0: 0772 a8bf cd3d d0b4 cfd9 a4bf e048 d3bf
000001f0: dffd 9c3f cc89 89bf c865 d0bf 5ec0 b5bf
00000200: 9f3d 59b6 f87e 0640 7103 a6bf 2e9c bd3f
00000210: a9b3 c13f 2c94 c236 f2a1 953f b011 a0bf
00000220: 36b0 5e35 a2f0 2d36 3a18 b3bf 6245 bbbf
00000230: 199b ab3f 15a1 bcbf e704 8cb5 6711 90bf
00000240: dd23 99bf 6ab4 a83f b89d a8bf 50e5 e93f
00000250: e156 a9bf 2d40 8bbf 9780 89bf 28c5 b5bf
00000260: eb2b e5bf 8cae afbf 37fe 42b6 c2a6 ed35
00000270: aeff 9dbf 4bd6 9a3f f399 9b3f 4863 a83f
00000280: fc49 a63f 834e af3f ec21 8cbf 0e40 aabf
00000290: e481 ae3f c687 8cbf 657b b33f cb0a cc3f
000002a0: c4d3 91bf 36e2 ccbf 8566 b1bf d02f aebf
000002b0: 5789 b0bf 39c2 b3bf 8ac5 a53f 191b b5bf
000002c0: fa8f a9bf 931d 9c36 1602 c63f c24e a7bf
000002d0: ff0e 8d3f 6408 a9bf 5c4c acbf 64c6 8635
000002e0: 68c6 96bf 4ace 91b5 82db a3bf feb9 9f3f
000002f0: c3fc adbf 2e4e b4bf 988b a63f 609f c33f
00000300: 351f a7b6 e8ec 6d3f 0c3c a23f 5f0c a1bf
00000310: fb83 a43f 1d00 8b36 4db5 ce3f 8228 98bf
00000320: dda2 0cb7 d360 0eb7 123c 9abf 27d4 a4bf
00000330: e8d0 b2bf 168c 8d3f 3975 8cb5 ed5e 72bf
00000340: 96fb 95bf 0e4f a1bf 2084 993f 4d45 93bf
00000350: d238 a33f 80d9 5dbf 8522 64bf 906f a83f
00000360: 273a f83f bcee 76bf 4517 5635 7cef e2b5
00000370: fb37 70bf 02c6 963f e4c3 953f 1f99 b0bf
00000380: 954e a83f 7258 a43f c439 aa3f aafb aebf
00000390: a170 a8bf b187 8abf ea24 a1bf 43de 8ebf
000003a0: d448 65bf 1202 9c3f 2132 80bf 42c7 973f
000003b0: b7d8 a93f 7d7c 973f 09a4 ab3f 7174 ba3f
000003c0: 62e1 9dbf 4afb 9836 108c b0bf ecf1 aa3f
000003d0: 14bc 653f d3ed b43f 6206 613f 5ab5 d2b6
000003e0: 3914 a4bf 9e5f aeb4 8acc be3f f378 a23f
000003f0: 1028 a1bf c9ed a03f b10f a73f 9788 9fbf
-1.8327056e-06 -1.9556556 -1.2381407 -1.4500815 -1.2952842 -3.4615758e-07 1.1500849 1.2361878
-5.4244547e-06 1.9496506e-06 1.3166242 1.1418034 -1.6007988 -1.2629725 -1.6566187e-06 1.3356372
1.4300146 1.2336521 -1.238722 1.2184995 -1.7512954 1.4567645 1.174381 1.4657861
1.8540268 1.3543204 -2.5849158e-06 -6.120592e-06 1.4852428 -1.2944509 -1.1807863 1.2608148
1.5446696 -1.0172689 -0.86660135 -1.4795655 1.386987 1.484308 1.2244835 -1.2829554
1.3809388 -0.854259 1.3316017 -1.2742385 1.216825 -1.2779324 -1.3974471 -1.1385065
1.3493528 -1.5998706e-06 -1.6564811 -0.8683012 -1.3080117 -1.1419711 0.83221835 1.8120509e-06
-1.3533369 -2.499467e-06 -1.194196 1.4310395 1.2214189 -0.9136872 1.4857979 1.3271506
1.1277257e-06 -2.0287006 1.5014366 -1.2901908 -1.3543851 7.5421713e-06 1.2476012 1.4331322
1.3010709e-06 -1.0698418e-06 1.4412217 1.298111 1.277038 1.3771962 1.4483329e-06 1.5279237
-1.3501205 1.4573094 1.337054 -1.2370976 1.3415465 -1.3502682 -1.4947373 -1.3158658
-1.9560255 1.3769135 -2.4854091e-06 8.097696e-06 -1.2999103 1.3277161 -1.2954466 -1.4129511
-1.5006595 -1.2084066 -1.231819 1.5098797 -1.2851874 -1.1354874 1.3449109 -1.2156122
-1.5806718 -1.2570866 1.3568654 1.4896858 -1.3345604 1.3169984 1.4038912 -1.1383755
1.3757075 1.4205173e-06 1.2837526 -1.20017 1.421674 -1.0473263 0.55930525 -3.0315646e-06
-1.3159798 -3.8787985e-07 -1.287897 -1.6506615 1.2264975 -1.0745177 -1.6281061 -1.4199331
-3.2371388e-06 2.1014996 -1.29698 1.4813287 1.5132953 5.7989e-06 1.1690047 -1.2505398
8.2957865e-07 2.5919076e-06 -1.3991768 -1.4630549 1.3406707 -1.4736658 -1.043224e-06 -1.1255311
-1.196407 1.3180058 -1.3173132 1.8273106 -1.3229638 -1.087896 -1.0742368 -1.4200792
-1.7904028 -1.3725142 -2.9056225e-06 1.7706409e-06 -1.2343652 1.2096647 1.2156357 1.3155298
1.2991328 1.3695835 -1.0947852 -1.3300798 1.363339 -1.0978935 1.4022032 1.5940794
-1.1392751 -1.6006534 -1.3859411 -1.3608341 -1.3791913 -1.4043647 1.2950909 -1.4148895
-1.3247063 4.652605e-06 1.5469387 -1.307091 1.1020201 -1.3205686 -1.3460803 1.0041517e-06
-1.1779299 -1.086338e-06 -1.2801363 1.2478635 -1.3592762 -1.4086359 1.3011351 1.5283012
-4.980621e-06 0.92939615 1.2674575 -1.25819 1.2852777 4.142536e-06 1.6149079 -1.1887362
-8.38257e-06 -8.486403e-06 -1.2049582 -1.2877244 -1.3970003 1.1058376 -1.0464929e-06 -0.94676095
-1.1717403 -1.260225 1.1993446 -1.1505524 1.2751715 -0.86660004 -0.8911517 1.3159046
1.9392747 -0.9645803 7.9755074e-07 -1.6908011e-06 -0.9383542 1.1779177 1.1700406 -1.3796729
1.3148981 1.2839491 1.3298879 -1.3670552 -1.3159372 -1.082266 -1.258939 -1.1161579
-0.8956425 1.2188132 -1.0015298 1.1857684 1.3269261 1.1834866 1.3409435 1.4566785
-1.2334406 4.559207e-06 -1.3792744 1.3355079 0.8974011 1.4135078 0.87900364 -6.2796e-06
-1.2818671 -3.2479596e-07 1.490617 1.2693161 -1.2590351 1.2572566 1.3051664 -1.2463559
