src/cora.pt (torch, 370527 bytes, 4 tensors)

convs.0.bias f4 [64]
0	0x3e8dc79e	0.27691358
1	0x3e008f91	0.12554766
2	0x3e4db80e	0.20089743
3	0x3e45b562	0.19307473
4	0x3e7ef3e3	0.24897723
5	0x3e0b81dc	0.13623756
6	0x3e5bbdfe	0.21459195
7	0x3ee63dfd	0.44969168
8	0x3dfca505	0.123361625
9	0xbcbbc72b	-0.02292212
10	0x3ee6a6f4	0.4504925
11	0x3ef2bf79	0.47411707
12	0x3e9c00c8	0.30469346
13	0xbc0618b7	-0.008184603
14	0x3ea7a35d	0.32741824
15	0x3ed463ed	0.41482487
16	0x3e4fd91e	0.20297667
17	0x3e5a485d	0.21316667
18	0x3e2da0ef	0.16955923
19	0x3e523187	0.20526706
20	0x3e10fc5d	0.14158769
21	0x3e833294	0.25624526
22	0x3e963e64	0.29344475
23	0x3df2a186	0.118472144
24	0x3e929194	0.28626692
25	0x3e94411f	0.28955933
26	0x3e233ebb	0.15941899
27	0x3e3d1cb6	0.18467984
28	0x3ec25e39	0.3796251
29	0x3e4d536d	0.20051356
30	0x3de91e2e	0.113827094
31	0x3e9161d9	0.28394964
32	0x3e3d337b	0.1847667
33	0x3ee99c2e	0.45626968
34	0x3e4a1800	0.19735718
35	0x3dbcfc31	0.09227789
36	0x3ecc8375	0.39944044
37	0x3e7597b4	0.23983651
38	0x3e9dc7bd	0.3081645
39	0x3e13b048	0.14422715
40	0x3e53e6b9	0.20693482
41	0x3e6c85b7	0.23097883
42	0x3e70de50	0.23522305
43	0x3ea30ebf	0.31847188
44	0x3eb1d7c6	0.34734935
45	0x3e5e62ee	0.21717426
46	0x3e907447	0.28213713
47	0x3e2a373b	0.16622631
48	0x3e868a73	0.26277503
49	0x3e95524c	0.2916435
50	0x3e6c01c3	0.23047547
51	0x3eb2ab0a	0.34896117
52	0x3e4e7eab	0.20165507
53	0x3e3bf92e	0.18356773
54	0x3e099339	0.13435067
55	0x3e3e840b	0.18605058
56	0x3e3ddb8a	0.18540779
57	0x3e1b3f34	0.15160829
58	0x3e4f8187	0.20264255
59	0x3e2aa17d	0.16663165
60	0x3e02e75d	0.1278357
61	0x3ddad620	0.10685372
62	0x3e88b9d9	0.2670429
63	0x3e11b1b8	0.1422795

convs.0.lin.weight f4 [64, 1433]
0	0xbb92bf3d	-0.004478364
1	0xbdf8267d	-0.12116716
2	0x3d50f3d3	0.05101378
3	0xbd71880c	-0.058967635
4	0x3efcd02c	0.49377573
5	0xbd19d79c	-0.037559137
6	0x3dfb2bdd	0.12264226
7	0xbd53636a	-0.05160848
8	0x3d057039	0.032577727
9	0xbb42016a	-0.0029602894
10	0xbb60640e	-0.0034239325
11	0x3c61bfc0	0.013778627
12	0x3e65d3ee	0.22444126
13	0xbdab6fe9	-0.083709545
14	0x3cad8419	0.021181153
15	0x3d848867	0.06471329
16	0x3c3d5821	0.011556656
17	0xbc979b43	-0.018506652
18	0xbc07fd15	-0.008300086
19	0xbea7136a	-0.32632
20	0xb453aaf2	-1.9713096e-07
21	0x3c94a6f6	0.01814602
22	0x3bea3780	0.0071477294
23	0xbcc5434a	-0.024079937
24	0xb9af0ae2	-0.0003338671
25	0x3e13a571	0.1441858
26	0x3e5d730a	0.21625915
27	0x3d562932	0.05228538
28	0x3dda20ca	0.10650785
29	0x3be3347d	0.0069337473
30	0xbd6429b2	-0.055703826
31	0xbb2fa5a6	-0.0026801615
32	0xbcce0cc4	-0.025152571
33	0x3b10c991	0.00220928
34	0xbd742d2a	-0.059613384
35	0x3d47f983	0.048821937
36	0x3d3ffa74	0.04686971
37	0xbc79d405	-0.015248303
38	0xbca1bdad	-0.019743765
39	0xbe0a3eae	-0.13500473
40	0x3dee4eac	0.11636099
41	0x3d02e573	0.0319571
42	0x3c2902e7	0.010315633
43	0x3c4d784f	0.012540891
44	0x3ccdcb78	0.025121436
45	0xbde259b1	-0.110522635
46	0x3bec0cf4	0.0072036926
47	0xbc07798e	-0.008268727
48	0x3d87809b	0.066163264
49	0x3bb0fd6d	0.0054013045
50	0xbd9ce0b0	-0.07660043
51	0x3e9bd6f0	0.30437422
52	0x3db9904f	0.09060728
53	0xbbbab3e7	-0.0056977156
54	0xbcb68cb7	-0.022283895
55	0x3c1d76d5	0.009610851
56	0x3d97db41	0.07414866
57	0xbd8699d3	-0.065723084
58	0xbc7cc206	-0.015427118
59	0xbd2eaa74	-0.042643026
60	0xb42eb23c	-1.6269854e-07
61	0x3dd8c78c	0.105849355
62	0x3d24f07d	0.04026841
63	0x3e1ea188	0.15491307
64	0x3ddfb620	0.109234095
65	0xbd6bb8ba	-0.057549216
66	0xbd53d4f2	-0.051716752
67	0xbb066e5c	-0.0020512557
68	0x3c14b712	0.0090768505
69	0xbd0fd731	-0.035117332
70	0xbd51753c	-0.051137194
71	0x3c78bc7d	0.015181658
72	0xbc807f12	-0.015685592
73	0xbd355aeb	-0.04427616
74	0xbd5d5f7f	-0.05404615
75	0xbdc64886	-0.096818015
76	0xbde3c439	-0.11121411
77	0x3e231d1c	0.15929073
78	0x3dabcb83	0.08388426
79	0xbb656af7	-0.0035006383
80	0xbd861a6c	-0.06548008
81	0xbce89b78	-0.028394446
82	0x3d31f3d2	0.043445416
83	0xbcbae4d6	-0.022814196
84	0x3ce9d293	0.028542792
85	0xbe120c0e	-0.14262411
86	0xbda2f630	-0.07957113
87	0x3d3003dd	0.042972434
88	0xbd87a928	-0.06624061
89	0x3e193776	0.14962563
90	0x3cafe7e1	0.021472873
91	0xbd03c9b5	-0.032174785
92	0x3df2f287	0.11862665
93	0x3e1a35a2	0.15059522
94	0xbd94062c	-0.0722774
95	0x3d46f066	0.048569106
96	0x3d6d2ec4	0.057905927
97	0xbda06478	-0.07831663
98	0xbcac4b56	-0.021032017
99	0x3e70a7db	0.23501532
100	0x3d15f7d3	0.036613297
101	0xbc63f456	-0.013913235
102	0x3dbc8ad6	0.09206168
103	0xbdb0a541	-0.0862527
104	0x3d7c5daa	0.061612763
105	0xb9a40f67	-0.00031291993
106	0xbd17e905	-0.03708746
107	0xbd373623	-0.044729363
108	0xbe348127	-0.17627393
109	0xbcb70359	-0.022340463
110	0xbbffecdc	-0.0078102183
111	0xbcbb6658	-0.02287595
112	0x3bafa77d	0.0053605423
113	0x3ab52017	0.0013818768
114	0xbd45a572	-0.048253484
115	0xbc07deb5	-0.008292844
116	0xbdb1a679	-0.0867433
117	0xbcc0a2fb	-0.023515215
118	0x3e87a8b9	0.26495913
119	0x3aabf616	0.0013119604
120	0xbd9880bd	-0.0744643
121	0xbd2e1282	-0.04249812
122	0x3cd7a20f	0.026322393
123	0xbca639e0	-0.020291269
124	0xbd95c787	-0.073134474
125	0x3dc0eb89	0.09419925
126	0x3c21bb38	0.009871297
127	0x3cfb3cc1	0.030668618
128	0xbcc66a25	-0.024220536
129	0x3d3b2822	0.04569257
130	0xbe185f97	-0.14880215
131	0x3cd2a0f5	0.025711516
132	0xbe41846c	-0.18898171
133	0x3cec125b	0.028817346
134	0xbd54a568	-0.051915556
135	0xbcbea8a8	-0.023273781
136	0xbdcf6035	-0.10125772
137	0xbbf59b39	-0.0074953106
138	0x3c4aadfb	0.012370582
139	0xbd4159fe	-0.047204964
140	0x3e89256d	0.26786366
141	0x3c568b26	0.013094699
142	0x3b828e37	0.0039842385
143	0xbd88538f	-0.066565625
144	0xbc180d9b	-0.009280588
145	0xb48d96d3	-2.6373036e-07
146	0x3d8a20c6	0.06744532
147	0xbca41f80	-0.020034552
148	0xbceb4b24	-0.028722353
149	0xbd75ada9	-0.05998007
150	0xbbb0d124	-0.0053960253
151	0x3e39c278	0.1814059
152	0x3c2eba2e	0.010664506
153	0x3d9eed06	0.077600524
154	0x3d241d19	0.040066812
155	0xbcc42101	-0.023941519
156	0xbdb517d2	-0.08842434
157	0xbda52462	-0.0806358
158	0x3ce23ec4	0.02761782
159	0x3d09c172	0.03363175
160	0xbde9cca3	-0.114159845
161	0x3cc8fbf3	0.024534201
162	0xb9c73fb0	-0.0003800369
163	0x3c90dcf1	0.017683478
164	0x3c2556b8	0.010091476
165	0x3b65706c	0.0035009636
166	0xbd7364a2	-0.059422143
167	0x3d09d1ad	0.033647228
168	0xbe71bebc	-0.23607916
169	0x3b14d327	0.0022708864
170	0x3cfd7207	0.030938162
171	0x3b38e48f	0.0028212403
172	0x3db90b90	0.090354085
173	0xbe143bef	-0.14475988
174	0xbd53ac8b	-0.05167822
175	0x3b4767c5	0.0030426842
176	0xbe0dbcee	-0.13841602
177	0x3cfacbe5	0.030614803
178	0xbbfaf866	-0.007659006
179	0x3e21e250	0.15808988
180	0xbb247503	-0.0025094158
181	0x3d1b96d0	0.037985623
182	0x3b5d3be9	0.0033757633
183	0x3b93e130	0.0045129284
184	0xbb00f656	-0.0019678078
185	0x3a89eec1	0.0010523425
186	0x3d19ff81	0.037597183
187	0xbd92fb58	-0.07176846
188	0xbde01e7f	-0.10943317
189	0x3d7aca3a	0.061228015
190	0x3c8b8223	0.017029827
191	0xbd00b506	-0.031422637
192	0xbc89313b	-0.016747108
193	0x3ca654ff	0.020304201
194	0xbda1ef3b	-0.07906958
195	0x3cc9e79a	0.024646569
196	0xbdb5f510	-0.088846326
197	0x3d82edd1	0.06393016
198	0xbc56b353	-0.013104278
199	0xbc91dd53	-0.01780573
200	0xbc03e0a4	-0.008049164
201	0xbc329931	-0.0109007815
202	0xbc819662	-0.015818778
203	0x3d19cb11	0.037547175
204	0x3c36040d	0.011109364
205	0x3e8c971a	0.2745903
206	0xbb979b35	-0.0046266564
207	0xbd9e007b	-0.077149354
208	0xbe110144	-0.14160639
209	0xbc249cca	-0.010047147
210	0x3bf198e5	0.007372963
211	0x3de81645	0.113323726
212	0xbda528bf	-0.08064412
213	0xbd0d43e5	-0.034488577
214	0x3daf9ae1	0.08574463
215	0x3d2be303	0.041964542
216	0xbcd8add6	-0.026450079
217	0xbdfdfd9c	-0.12401888
218	0xbda5885a	-0.080826476
219	0x3ce9e754	0.028552689
220	0x3ca8875d	0.020572359
221	0x3d03fd26	0.032223843
222	0x3d07b537	0.033131804
223	0xbc10c632	-0.008836316
224	0x3d8bfe92	0.06835665
225	0x3d232124	0.039826527
226	0x3d351b33	0.044215392
227	0xbc14dfd3	-0.009086567
228	0x3c8e8fb8	0.017402515
229	0xbb3e3154	-0.00290211
230	0xbc993e9f	-0.018706618
231	0xbce4ab50	-0.02791372
232	0x3d3abed9	0.045592163
233	0x3ddf6742	0.10908367
234	0x3e0fe414	0.14051849
235	0xbc7ecd28	-0.015551843
236	0x3d0ca3dd	0.03433596
237	0x3da7cbca	0.081931666
238	0x3ce766bd	0.028247232
239	0xbcf3c7ed	-0.029758418
240	0xbd54954e	-0.0519002
241	0x3c0a178a	0.008428464
242	0x3c69e3b2	0.014275478
243	0xbca42af0	-0.020040005
244	0x3d9d3fff	0.07678222
245	0x3d7bb458	0.061451286
246	0x3bcf7560	0.006331131
247	0x3dcfcc24	0.101463586
248	0x3bb7afb9	0.0056056646
249	0xbdf86d69	-0.12130243
250	0xbc2176a9	-0.009854951
251	0xbdbfc7e7	-0.093643
252	0xbc7c43b3	-0.015397
253	0x3d60536b	0.054767054
254	0xbca03958	-0.019558594
255	0x3d407ffc	0.046997055

convs.1.bias f4 [7]
0	0xbf07963e	-0.52963626
1	0xbef2216c	-0.47291124
2	0x3f3332c9	0.69999367
3	0xbe2773d7	-0.16352783
4	0xbeb3cb97	-0.35116264
5	0x3f516034	0.8178742
6	0xbf292ebe	-0.6608695

convs.1.lin.weight f4 [7, 64]
0	0x3f958930	1.1682491
1	0xbf821358	-1.0162153
2	0xbf8b6516	-1.0890224
3	0xbfa2f080	-1.2729645
4	0xbfbe75f5	-1.4879748
5	0x3fa17c1f	1.2616004
6	0x3faf2254	1.3682351
7	0xbfa57eba	-1.2929299
8	0x3fb27ae6	1.3943756
9	0x36a65e93	4.9581954e-06
10	0x3f8dbaef	1.1072673
11	0x3f8acf4a	1.084451
12	0x3fa25767	1.2682923
13	0xb51c7f29	-5.829957e-07
14	0xbfc31f1a	-1.5243866
15	0x3f8ccf0c	1.1000686
16	0xbf985a08	-1.1902475
17	0x3fb4c6e2	1.4123194
18	0xbf93d4a3	-1.1549267
19	0xbfaf7b53	-1.370951
20	0x3fb2893b	1.394813
21	0xbf7d2381	-0.988823
22	0xbf773716	-0.9656843
23	0xbfa1a851	-1.2629491
24	0x3f860395	1.0469843
25	0x3f93fe54	1.156199
26	0xbfaea33b	-1.3643564
27	0xbfdf9831	-1.746832
28	0xbfa75fdd	-1.307613
29	0xbfa385c8	-1.2775202
30	0xbf90d149	-1.1313869
31	0x3f913f6f	1.1347483
32	0xbfa83cf7	-1.3143605
33	0x3f7afe29	0.9804407
34	0x3facf498	1.3512144
35	0xbf812322	-1.0088847
36	0x3f97b111	1.1850911
37	0xbf994ebe	-1.1977155
38	0x3fa00674	1.2501969
39	0xbf961351	-1.1724645
40	0xbf96497a	-1.1741173
41	0x3f9227e7	1.1418427
42	0xbfa29da4	-1.2704358
43	0x3f99adb0	1.200613
44	0x3fb58c7e	1.41835
45	0xbf926bd8	-1.1439161
46	0xbf66cb18	-0.90153646
47	0xbf8fe710	-1.124239
48	0x3fac5211	1.3462545
49	0xbf8a9cce	-1.0829103
50	0x3f898111	1.0742513
51	0xbfaa69d8	-1.3313551
52	0xbf88162c	-1.0631766
53	0xbfa2a613	-1.2706932
54	0xbf941696	-1.1569393
55	0x3fa03d68	1.251874
56	0x3f770169	0.96486527
57	0x3fb71f1c	1.4306369
58	0xbfa7e225	-1.3115889
59	0x3f92643b	1.1436838
60	0xbfa268b3	-1.2688202
61	0xbf885b9c	-1.0652957
62	0x3f8b7212	1.0894186
63	0x3fb165d5	1.3859202
64	0xbf9e50d5	-1.2368418
65	0x3f9572ca	1.1675656
66	0xbf86178a	-1.0475934
67	0x3f623ce8	0.88374186
68	0xbf944e6b	-1.1586431
69	0x3f73e735	0.9527467
70	0xbf8a7e6b	-1.081983
71	0x3f8d8410	1.1055927
72	0xbf8e6219	-1.1123687
73	0xb6561801	-3.1902457e-06
74	0xbf8c4131	-1.0957395
75	0xbf989c3c	-1.1922679
76	0x3f8c9950	1.0984287
77	0xb29d8940	-1.833962e-08
78	0xbf901006	-1.125489
79	0xbf91de0f	-1.1395892
80	0x3f8a9227	1.0825852
81	0xbf9f0ef0	-1.2426434
82	0x3f940e8e	1.1566942
83	0x3fc33c8c	1.5252852
84	0x3f8dd960	1.1081963
85	0x3f8c43d2	1.0958197
86	0xbf5f870d	-0.87315446
87	0x3fa61780	1.2975922
88	0xbf6eddc5	-0.93307143
89	0x3f7b0009	0.9804693
90	0x3f8f795c	1.1208911
91	0x3fc75063	1.5571407
92	0xbf913737	-1.1344975
93	0x3f9b9722	1.2155497
94	0x3f98f955	1.195109
95	0xbf9d8672	-1.2306654
96	0xbf857f13	-1.0429405
97	0x3f386eea	0.7204424
98	0xbf8a2c7b	-1.0794824
99	0x3f8b2771	1.0871412
100	0xbf956989	-1.1672832
101	0x3f9e2d57	1.2357587
102	0x3f800136	1.000037
103	0x3f8e4a45	1.1116415
104	0xbf841f81	-1.0322114
105	0xbf950dfb	-1.1644892
106	0xbf9d0985	-1.226853
107	0x3f9d55f4	1.2291856
108	0x3f9c42cc	1.2207885
109	0xbfb939ca	-1.4470761
110	0xbf4a225e	-0.7895869
111	0xbf881a11	-1.0632955
112	0xbf985fe6	-1.1904266
113	0x3fa4bd44	1.2870259
114	0x3f80086b	1.0002569
115	0xbf951069	-1.1645633
116	0x3f86ab1d	1.052097
117	0xbf8606af	-1.047079
118	0x3f95c7f1	1.1701642
119	0xbf75d8c2	-0.9603387
120	0x3f36710a	0.71266234
121	0x3fa11747	1.2585229
122	0xbf84df33	-1.0380615
123	0x3f6976d1	0.91196924
124	0x3f56d01d	0.83911306
125	0x3f9d4566	1.2286804
126	0x3f8d5026	1.1040084
127	0x3f85c2a4	1.0450025
128	0x3f87cd4f	1.060953
129	0x3f9b54c6	1.2135246
130	0x3f999685	1.199906
131	0x3f8b252a	1.0870717
132	0xbee4d0a3	-0.44690427
133	0x3f8ea927	1.1145371
134	0x3f6e38de	0.9305552
135	0xbf83be99	-1.0292541
136	0x3f8959f9	1.0730582
137	0xb70443be	-7.883586e-06
138	0xbf7a5082	-0.97779095
139	0xbf8e4352	-1.1114295
140	0xbf88eb67	-1.0696839
141	0x3602fb41	1.9517759e-06
142	0xbf6089bc	-0.87710166
143	0xbf8333de	-1.0250204
144	0x3fa46422	1.2843058
145	0x3f9763f3	1.1827377
146	0xbf8eeb9c	-1.1165652
147	0x3fb1ffb7	1.3906163
148	0x3f8ad9bc	1.0847697
149	0xbf851ecc	-1.0400023
150	0x3f9f739a	1.2457154
151	0x3f6cebdd	0.925474
152	0x3fa68319	1.3008758
153	0xbf9612dd	-1.1724507
154	0xbf752ea6	-0.95774305
155	0x3f8e8df1	1.1137067
156	0xbf3418c2	-0.7035028
157	0xbf235386	-0.6379932
158	0x3f86c0ee	1.0527627
159	0x3f987afc	1.1912532
160	0x3f9609e3	1.1721767
161	0xbf9b5f43	-1.2138447
162	0x3f7eb8f6	0.9950098
163	0x3f98fb15	1.1951624
164	0xbf8af882	-1.0857089
165	0xbf431e2a	-0.762179
166	0xbf898c36	-1.0745914
167	0x3f9c4a06	1.221009
168	0x3f8e71da	1.1128495
169	0x3f94ef9a	1.163562
170	0x3f97606a	1.1826298
171	0xbf8839ef	-1.064268
172	0xbf827e67	-1.0194825
173	0x3f415e3b	0.7553441
174	0xbf82c2e6	-1.0215728
175	0xbf5d7166	-0.8650116
176	0x3f9ec96e	1.2405221
177	0xbf8d38f0	-1.1033001
178	0xbf8e21d9	-1.110408
179	0xbf3fcb10	-0.74919224
180	0xbf8dc8b6	-1.1076877
181	0x3f8c15c1	1.0944139
182	0x3fa64047	1.2988366
183	0xbf651fbc	-0.8950155
184	0x3f9671a5	1.1753432
185	0xbf65cd4a	-0.8976637
186	0x3f8f7c77	1.1209859
187	0x3f6f47d8	0.93469
188	0x3f6c765a	0.9236809
189	0x3fa4adbe	1.2865522
190	0xbf90eaa8	-1.1321611
191	0x3f603135	0.87575084
192	0xbfa01108	-1.2505198
193	0x3f9bd21e	1.2173498
194	0xbf780f19	-0.9689804
195	0x3f8dbaab	1.1072592
196	0x3fa45de3	1.2841152
197	0xbfa73a36	-1.306464
198	0xbf96919d	-1.1763188
199	0x3f7f0ee2	0.99632084
200	0xbf84f7fd	-1.038818
201	0xb683f4f2	-3.9326196e-06
202	0x3f9a76fb	1.206756
203	0x3f8b330d	1.0874954
204	0x3f85c226	1.0449874
205	0xb5b8aaae	-1.3758743e-06
206	0x3f9a1fe2	1.204098
207	0x3f96d2b8	1.1783056
208	0xbf87be9e	-1.0605047
209	0x3f8a3be7	1.0799531
210	0x3f9e4b01	1.2366639
211	0xbfc96bef	-1.5736064
212	0xbfa3074c	-1.2736602
213	0x3f95da75	1.1707293
214	0xbf6ea51f	-0.93220705
215	0x3f86f559	1.0543624
216	0xbf8bc175	-1.0918413
217	0xbf983728	-1.1891832
218	0xbf9d3cf6	-1.2284229
219	0xbfd4237f	-1.6573333
220	0x3fa54799	1.2912475
221	0x3f9bb9b6	1.216605
222	0xbf962426	-1.1729782
223	0x3f8e5b81	1.1121675
224	0xbfd4d841	-1.6628495
225	0x3f2cb80a	0.6746832
226	0xbf88d397	-1.0689572
227	0xbf80e2b5	-1.0069185
228	0xbf902534	-1.1261353
229	0xbf84a8c4	-1.0364003
230	0x3f8ff4e2	1.1246607
231	0x3f98624b	1.1904997
232	0xbf890c88	-1.0706949
233	0xbf91fa09	-1.140443
234	0x3fb91a65	1.446118
235	0xbf93f27b	-1.1558374
236	0xbfa0a1f1	-1.254942
237	0x3ff8becb	1.9433225
238	0xbf7a0c12	-0.9767467
239	0x3f9e9c3f	1.2391433
240	0x3f90c074	1.1308732
241	0xbf8ba46e	-1.0909555
242	0xbf94a89f	-1.1613959
243	0x3f909310	1.129488
244	0x3f90761f	1.1286048
245	0xbfac2dfe	-1.3451536
246	0x3fa321ed	1.2744728
247	0xbf8d3119	-1.1030608
248	0x3f7777c1	0.96667105
249	0xbf8e0099	-1.1093932
250	0xbf92c74a	-1.1467068
251	0x3f5706a8	0.8399453
252	0x3fc7c726	1.560765
253	0xbf8ab22e	-1.0835626
254	0xbfa2b8ce	-1.2712648
255	0xbfa14120	-1.2598
