src/mutagenicity.pt (torch, 7695 bytes, 8 tensors)

conv1.bias f4 [20]
00000000: 72b6 2bbe 9514 f9be 0c78 26be 6fa4 34be
00000010: 81b0 65bd bf0d 96bd 952f e4bd c972 a5bd
00000020: bb44 7cbd da60 77be 01ee 1a3c 0a84 17be
00000030: b51a 9cbe 99ac 2cbf 2903 8fbe b309 c93d
00000040: cd14 4b3d 9d9a 3fbb 863e d8be c4b4 e3bd
-0.16768816 -0.48648515 -0.16256732 -0.17640851 -0.05607653 -0.073268406 -0.11141888 -0.08078534
-0.061588984 -0.2415804 0.009456159 -0.14796463 -0.30489126 -0.67450863 -0.27932099 0.09816303
0.049580384 -0.0029236444 -0.42235202 -0.11118463

conv1.lin.weight f4 [20, 14]
00000000: 4f9b 91bf f27e 663f 922b 3c3f 6ac7 113f
00000010: ed6a f2be 375f 8b3f 5c0f 4a3f 30f3 d7be
00000020: 5d58 bebf f4a6 8dbf 9df5 123e b11e e4be
00000030: c29b cabb 15c8 b03d b6b4 f53b a398 3c3f
00000040: a361 5c3f ecf6 a7be de1a cdbd b6c6 8b3f
00000050: b9b6 453f cda3 d03f 31f5 cfbf aa1b d73f
00000060: 4e00 f6be f437 b5bd 1a08 4cbd f3c4 18bf
00000070: 4169 a2be c88e 683f 5c37 863e d627 f1be
00000080: 39ed d4bf fb0e b13e f936 b73e 8624 1340
00000090: f996 5f3f f6c4 a3bf 9174 5a3d 3450 26bb
000000a0: b738 60bf 3d06 69be 6b36 513f 7924 10bf
000000b0: 7481 fdbf ad2f ddbe a7a6 f1be b1a1 cdbd
000000c0: 51f3 8ebf 402d 4940 b9ae 17bf 3082 adbf
000000d0: ad60 983d b030 923d 9df8 61bf d0e0 8a3d
000000e0: 169e 9f3c da63 fb3f 72eb 19bd 697b 51bd
000000f0: a2da bfbf e9d2 febe 05ba 4d3e b26b 1f40
00000100: de3e 4cbf 1dce 53bf 46aa 283c 40f7 93bd
00000110: 98b3 113f bc70 e03e 1e79 67be 8b66 623e
00000120: 762a 5f3e a161 3bbe 6c9c 9f3d edc1 8a3f
00000130: 4a47 1b3e 9b17 a0bf 6b42 d63f c53e a940
00000140: 7ae2 973f 0f0d 993f 1062 2b3f 47e4 2d3f
00000150: ae10 9dbe bff9 6abe 3f5b 953c ebc4 633f
00000160: 6a13 28bf ca60 c23e 7e74 84bc 3470 483d
00000170: faf8 793f 13f4 bebe 70c9 a73d 85f2 f03f
00000180: 7e4d 7e3f 7b44 623f f4fe 97be 5caa 253e
00000190: 7629 7ebf c8db 553f 942d bdbf a0cc 01be
000001a0: 0f07 ad3e c667 5abd 2630 6040 5e9e 953e
000001b0: 18c8 013d ddcc 00bf edac 68bf af40 693d
000001c0: 0a67 13bf d287 923f 4cbf 933f 1d68 0dbf
000001d0: cf44 35bf 012c c33e d364 b03e 5ce6 a13f
000001e0: 11df bdbd c2e6 c6bf 9f36 61be dcf6 e13d
000001f0: f773 ffbc 8411 acbe a655 5a3e d284 79bf
00000200: ebf2 80bf 842a 883f 2b33 96bf 2343 a4be
00000210: c072 5bbf 6479 d23f 6436 1140 238e ddbe
00000220: d33d cf3d 6d22 78bf 869c e13d c759 fbbe
00000230: e4a4 06bf 26d6 413f 9ca8 d4bf 8176 873f
00000240: 87be 98bf 67bd 333f 40f2 2ebf 2c53 1b40
00000250: ce40 2cc0 d5d0 52bf c796 f7bd e8c6 bcbd
00000260: e085 02bf 5d77 24be 26c2 44be b38d 97be
00000270: 62e2 383f 3f49 1b3f 8033 873f 388d 50be
00000280: 7011 55bf d572 b0be 9e2e 5bbf 6aba d13e
00000290: 4cdb 9d3d 3641 03bf 77a4 f23e 06a4 7bbe
000002a0: 11ca ebbe 21b3 24be 3f14 5a3f 49b6 73be
000002b0: 0a02 893f 5d14 a8be abb5 473f 8b72 3d3f
000002c0: 6176 d03f 8069 cc3f 4132 0bbe 7ad7 dbbe
000002d0: a1b7 193e a55b e0bd d848 1e3e b146 a03f
000002e0: d507 a2be 9a24 57bf 7d0f fa3f 763d 253f
000002f0: 74cb 993f f70b b0bd ae40 9ebf f260 b43e
00000300: 1a22 e3be 0ebe 46bf 63cc b93e 19ca d5be
00000310: 2fba 0dbf a78b 3a3f 8fc9 123f 9895 ecbd
00000320: 21b1 5e3f a7a8 c13f 96f7 d23e 4737 01bf
00000330: aae9 263f 3ad0 493f 73fc 1d3e a707 59bf
00000340: 72c3 4abf dfb7 b6bc 9172 19bf 69fd 803e
00000350: dd38 a03c b152 26bf 524d a63f 1c1e a13f
00000360: b211 c03f 68de 83bf de6a 64bf ca2f 133e
00000370: fe33 293f 9a3a 19bf 0375 02be 0d4b d7bd
00000380: 17d2 833f 5845 e3bf 987d 673e d554 e3bf
00000390: 62a8 713e 81e6 533e 250f 6a3e dda8 9bbf
000003a0: 5c2f 86be c880 893f bfe2 a73f 149d b33e
000003b0: a034 64bf 02e9 8cbd ad97 403e f467 1abf
000003c0: 9e77 1940 784b f7be fbb2 3cbf bf66 b13e
000003d0: 54ef 1440 23b9 b1bf 372a 4a3e bf4f dd3f
000003e0: 90f9 7f3f c5e2 b43e 1b87 fe3e 86d6 153f
000003f0: be85 a6bd 40be a73f 9072 423f 3685 5fbd
-1.1375521 0.90037453 0.73503983 0.56944907 -0.47347203 1.0888432 0.78929687 -0.42177725
-1.4870716 -1.1066575 0.14351507 -0.44554666 -0.0061831186 0.086319126 0.007498349 0.73670405
0.8608648 -0.32805574 -0.1001489 1.0920017 0.7723194 1.6299988 -1.6246701 1.6805317
-0.48047107 -0.08848563 -0.049812414 -0.5967552 -0.31720927 0.90842867 0.2621411 -0.47100705
-1.6634895 0.34581742 0.35784128 2.2991042 0.8733974 -1.2794483 0.053333823 -0.0025377395
-0.8758654 -0.22756286 0.8172366 -0.5630565 -1.9805131 -0.43200436 -0.47197458 -0.10040606
-1.1168004 3.1433868 -0.5925098 -1.3555355 0.074403144 0.07138193 -0.8826998 0.06781161
0.019484561 1.9639847 -0.037578054 -0.051143084 -1.4988596 -0.49770287 0.20090492 2.4909482
-0.7978343 -0.8273638 0.010294503 -0.072248936 0.56914663 0.4383601 -0.22604796 0.2210943
0.21793541 -0.18298961 0.07793507 1.0840431 0.15163913 -1.2507204 1.6739019 5.2889123
1.186599 1.195711 0.66946507 0.6792645 -0.30676788 -0.22946833 0.018231986 0.8897235
-0.65654624 0.3796447 -0.016168829 0.04893513 0.97645533 -0.3729559 0.08192718 1.8824011
0.99336994 0.8838574 -0.296867 0.16178268 -0.99282014 0.83538485 -1.4779534 -0.12675714
0.33794448 -0.053321622 3.5029387 0.29222387 0.031684965 -0.50312597 -0.90888864 0.056946453
-0.575791 1.1447699 1.1542754 -0.5523699 -0.7080812 0.3811951 0.34451923 1.2648425
-0.09271062 -1.5539172 -0.21993493 0.11033413 -0.031183226 -0.33607113 0.21321735 -0.9746829
-1.0074133 1.0637975 -1.1734365 -0.3208247 -0.8572197 1.6443295 2.2689447 -0.43272504
0.10119214 -0.9692753 0.110161826 -0.49091932 -0.52595353 0.7571739 -1.6613955 1.058304
-1.1933144 0.7021088 -0.68338394 2.4269514 -2.6914554 -0.823499 -0.12089305 -0.09217626
-0.5098553 -0.16061158 -0.19214687 -0.29600295 0.7222043 0.6065864 1.0562592 -0.2036637
-0.8322973 -0.3446261 -0.8561801 0.40962535 0.07707843 -0.5127138 0.47391102 -0.24574289
-0.46052602 -0.16083957 0.85187143 -0.23800005 1.0703747 -0.32828036 0.7801158 0.74002904
1.6286126 1.5969696 -0.13593389 -0.42937833 0.15011455 -0.1095498 0.15457475 1.2521573
-0.316466 -0.84040225 1.9535977 0.64546907 1.2015214 -0.08596032 -1.2363489 0.35230213
-0.44361955 -0.7763375 0.36288747 -0.4175575 -0.5536222 0.7286934 0.57338804 -0.1155197
0.8698903 1.5129594 0.41204518 -0.5047497 0.65200293 0.78833354 0.15428333 -0.847773
-0.79204476 -0.022304473 -0.5994044 0.25193337 0.019558365 -0.6496993 1.2992346 1.2587314
1.50054 -1.0302248 -0.89225566 0.14373699 0.6609496 -0.59855044 -0.12739949 -0.10512362
1.0298489 -1.7755537 0.22606504 -1.7760264 0.23599389 0.20693399 0.2285734 -1.2160908
-0.26208007 1.0742426 1.3116072 0.3508078 -0.891428 -0.0688038 0.1880786 -0.6031487
2.3979259 -0.48299766 -0.737106 0.34648702 2.3271074 -1.3884624 0.19742666 1.7289962
0.9999018 0.3532926 0.49712452 0.5853046 -0.08130978 1.3104935 0.7595606 -0.0545704

conv2.bias f4 [20]
00000000: 0d80 ccbd a0f6 883e fa27 d93d f0a1 b1be
00000010: fdbd a23e 05e3 df3d f59d b63c e5d2 e13d
00000020: 8248 a9be 670a 8ebe 06c0 c53e 34b5 bfbe
00000030: 6e14 773e 04d9 2c3e 22e6 cfbe fadd a93d
00000040: 31f6 8fbe a41b aebe 1343 48be cacf 53be
-0.09985361 0.2675066 0.10603328 -0.3469386 0.31785575 0.109319724 0.022292117 0.11026553
-0.33063132 -0.2774231 0.38623065 -0.37442935 0.24128887 0.1687966 -0.40605265 0.08294292
-0.28117517 -0.34005463 -0.19556837 -0.20684734

conv2.lin.weight f4 [20, 20]
00000000: 400d d5bf 3906 f6be 2aa3 3f3f 3022 5a3f
00000010: dd6e 053f f9c6 a13f 39f0 bf3d 4f1a 2a3e
00000020: 0ed7 5f3f 4451 49bd a98d 3a3f fc8b aabe
00000030: 8559 733f 118a 39c0 4b27 acbf f6de 50c0
00000040: 39a4 bf3f 494f e2bf 2109 953e 6915 ffbe
00000050: 756b 47bf 2e66 a83e 92c9 5ebf 7bd5 2ebe
00000060: 8bd2 783f 9bc8 133f ff24 a4bc 04e9 113e
00000070: 895b 48be 7d02 5b3e d645 91be ae6e 7b3e
00000080: 88ba 03c0 2982 0740 4b52 073e 0417 193e
00000090: c053 b6bf 2917 eebf 5a48 32bf af7e c9bf
000000a0: d41a 1040 0256 51bf ced8 85c0 9b7b aebe
000000b0: 5d38 93bf 80de 0dc0 4775 853f 5e3e a93f
000000c0: 1279 a1bf e2ff 9d3f d320 c63e 0e82 883e
000000d0: 1aa7 57c0 641f a93f b190 4dbf fd65 6abd
000000e0: 976e 14be 613e 15bf ef6e fabf 19fa 36be
000000f0: f7a6 d03f 2cde 6b40 fb85 3a3f 869e a43e
00000100: a223 443f 4e28 663e 9f49 503e 6641 7fbe
00000110: 0aa4 973f a34e 2cc0 0259 a13f 3a3f f83d
00000120: e69c 023f 2797 dc3e eae6 973e 8421 cebe
00000130: 3599 833f 3c26 b2bf 322f 863f 703a 143f
00000140: a08f 50bf 18cc 23c0 c81a bf3f 677c a3bf
00000150: dab6 8abf cc06 8dbf 073a ebbf 80ba db3e
00000160: b45f 1ebf 0bfa e3bf eb59 9d3e 5478 343f
00000170: d523 1240 74ef 19be 2bbb 883e aadf 85bd
00000180: 0581 8abf 41f7 203f e8bb 26c0 8111 00bf
00000190: da07 11c0 aaf5 1bbf 45f2 30bf db5e 443f
000001a0: 13a8 073f 7974 22bf e19c d4be 178c 2fc0
000001b0: cf5f c4bf 752c 243f 0762 d7bf d2d0 e33e
000001c0: 7682 13be 6bd9 3fc0 338a 863f d9ff 593e
000001d0: 170f 2f3f ef24 6bbf 0203 c8bf 60ca 3c3f
000001e0: 3101 88bf abbd d7bd b85b f03e 7cb8 9e3e
000001f0: 18a1 d5bf 5934 2b3e 7819 633f 07e6 5b3f
00000200: 7753 953e da32 f8bd 22fc 1fbd 494a 783f
00000210: ea42 5fbf 58a9 e1be fd85 bdbf 8e85 1b3f
00000220: f003 7dbe a11c 2f3f c2ad a7bc 0351 243e
00000230: 08c8 e83e 056c 9b3e 4603 8e3e bb99 4d3f
00000240: b9c5 fbbe 14ed ad3f 8e6b 80be ac8f 35c0
00000250: 3a8d 19c0 b8e7 2abf 9f79 bcbf db50 c93e
00000260: 0fd1 b1be b679 b1bf c727 58be e78a a9bf
00000270: 9e21 8abc 4f57 f5bd e582 423f a4a1 b0be
00000280: 14d6 fcbe e2a9 0b3f 96a9 cb3f 55ae 093f
00000290: f31d 88bf 9d31 853d f984 343f 83d5 9b3f
000002a0: 406b c2bf 9a58 443b c8b6 b73f bbaf 80be
000002b0: f242 7d3f 756a 893f f52e 123f 3079 8c3f
000002c0: 280a 7ebf a97f 2a3f d5ce 54bf 1e40 5a3f
000002d0: 3206 53bf 50bc f9bd 8828 0c3e 13a5 bf3d
000002e0: 5a42 cc3f 4296 a9be fda5 06bf 1096 37bf
000002f0: fb65 423f 4292 4fc0 d736 713f 3d41 22be
00000300: dd63 1340 b296 4ebf 952f abbf 9409 cf3e
00000310: 622b 913e 317f 6d3f a921 243f 9931 83be
00000320: 2df2 6ebf 6d2e 103f 021d a23c 5044 033f
00000330: 1458 d03d 3c48 afbf 1180 fbbc 1651 d33e
00000340: bc1a 9cbe 9d21 133f 51ec 383e e3c1 23bc
00000350: 52b8 cbbf cb1d c13f fa9a 41c0 8897 e0be
00000360: e704 d6bf f099 52c0 2881 d0bd 7fe2 b0bf
00000370: 6b3d fe3f b75e b53f aba5 8a3f 60f2 35c0
00000380: 7301 c03e fa89 b83e 9a99 923f 48d9 373f
00000390: d22b 063f dc03 21bf a2c8 c33e 24bf 743f
000003a0: 1cc8 1fc0 ea07 7a3e d917 5c3e ad88 15bf
000003b0: d14a c13d b885 2b3e f665 aa3f 7090 863e
000003c0: 7e39 0940 dae6 2c40 188c 1a40 c6e0 173d
000003d0: 1a63 43bf 1ed8 31bf 941c 843c 9498 3bbd
000003e0: 2b7f d83f 9ee3 233f 6214 12bf 66b4 833f
000003f0: 2dc7 14c0 dcc6 26bf 7607 a5bb 0f62 0dbf
-1.6644669 -0.48051623 0.74858344 0.85208416 0.5212229 1.2638847 0.09371991 0.16611598
0.8743752 -0.049149767 0.72872406 -0.33309925 0.9505847 -2.899052 -1.3449491 -3.2636085
1.4971992 -1.7680446 0.29108527 -0.49821022 -0.7789834 0.32890457 -0.8702632 -0.17073624
0.97196263 0.57727975 -0.020037172 0.14249045 -0.19566168 0.21387668 -0.28373593 0.2455394
-2.05826 2.1173193 0.13214986 0.14950186 -1.4244308 -1.8600818 -0.6964165 -1.5741786
2.2516375 -0.8177186 -4.1827154 -0.34078678 -1.1501576 -2.2167053 1.0426415 1.3222158
-1.2615073 1.2343714 0.38696918 0.26661724 -3.369574 1.3212705 -0.80298907 -0.05722617
-0.14495312 -0.5829831 -1.9565104 -0.17868842 1.6300954 3.6854353 0.7286069 0.32152194
0.7661687 0.22476313 0.20340584 -0.24927291 1.1846936 -2.6922996 1.2605288 0.121214345
0.5102066 0.4308407 0.2966836 -0.40259945 1.028113 -1.3917918 1.0483153 0.5790167
-0.81469154 -2.559332 1.4930048 -1.277234 -1.0837052 -1.1017699 -1.8377084 0.42915726
-0.6186478 -1.7810682 0.30732664 0.70496106 2.283437 -0.1503275 0.26705298 -0.06536801
-1.0820624 0.6287728 -2.605219 -0.5002671 -2.2661042 -0.6092173 -0.69119674 0.7670724
0.52990836 -0.63458973 -0.4152594 -2.7429254 -1.5341738 0.64130336 -1.682679 0.44495255
-0.14405236 -2.9976451 1.0510925 0.21289004 0.683824 -0.9185323 -1.5625918 0.737463
-1.0625364 -0.10534223 0.46944976 0.31000125 -1.6689787 0.16719188 0.8871074 0.8589787
0.2916524 -0.12119074 -0.039058812 0.9698835 -0.8721148 -0.44074512 -1.4806515 0.60750663
-0.24708533 0.6840306 -0.020468596 0.16046529 0.45465112 0.3035585 0.27736872 0.803127
-0.49174288 1.3587976 -0.25082058 -2.836894 -2.3992448 -0.66759825 -1.4724616 0.393195
-0.34729812 -1.3865268 -0.21108924 -1.3245515 -0.016861733 -0.119795434 0.7598098 -0.34498322
-0.4938208 0.54556096 1.5911129 0.53781635 -1.063414 0.065036036 0.705154 1.2174534
-1.518898 0.0029960037 1.4352655 -0.25134072 0.98930275 1.0735613 0.571029 1.0974483
-0.9923425 0.66601044 -0.831281 0.85254085 -0.8243133 -0.12194121 0.13687336 0.09357657
1.5957749 -0.3312245 -0.5259703 -0.7171335 0.7593686 -3.2433019 0.94224304 -0.15845199
2.3029702 -0.8069869 -1.3373896 0.40436995 0.2835341 0.92772204 0.6411386 -0.25623778
-0.9333828 0.5632084 0.019789223 0.5127611 0.101730496 -1.3693919 -0.030700715 0.412728
-0.30489147 0.57473165 0.18058898 -0.009994957 -1.5915625 1.5087217 -3.025084 -0.4386561
-1.6720246 -3.2906456 -0.101808846 -1.3819121 1.9862493 1.416953 1.0831808 -2.8429184
0.37501106 0.36042768 1.1453125 0.7181592 0.52410614 -0.62896514 0.38239008 0.9560416
-2.4965887 0.24417081 0.21493472 -0.58411676 0.09438098 0.16750228 1.3312366 0.26282072
2.144134 2.70159 2.4148006 0.037079595 -0.7632309 -0.69470394 0.016126908 -0.045799807
1.6913809 0.6401919 -0.5706235 1.0289428 -2.3246567 -0.65147185 -0.00503629 -0.5522775

conv3.bias f4 [20]
00000000: 448d 93be de66 a0bd e6de fe3d 0391 91bd
00000010: 9526 b53d 1a1c c2bd 3690 123d 048d 31bc
00000020: 5a5f 6cbc a7d6 863e e713 84be 386e 9abe
00000030: 4c5d 09be 9006 7f3b 8032 0ebd 3785 8f3e
00000040: 8fa4 08be c46c 5cbe 1c89 20bd 6de4 bbbe
-0.28818715 -0.0783212 0.12444858 -0.07107737 0.088452496 -0.09478016 0.03578206 -0.010836843
-0.01442703 0.26335642 -0.25796434 -0.30162215 -0.13414496 0.0038913824 -0.03471613 0.28031322
-0.13344024 -0.21525866 -0.039193258 -0.36697713

conv3.lin.weight f4 [20, 20]
00000000: ddcc 56bf 46a3 f8be 63ba a03f e005 a8bf
00000010: d699 e1be 462a 3ebf 0b5e 163f c09b 7fbe
00000020: 5bf0 3e3e b592 d03f 8a72 0cbe 5734 83bf
00000030: 9fa7 b4be 7f02 963f 76ed a13f ceb2 34bf
00000040: 8b25 e83f bca6 e03e 187b b53f b4d8 ed3f
00000050: 5a8e 22be 9e5d 4e3e b256 203e 06e4 ae3d
00000060: 5d0b 47be bb1a 2fbf ffce 263d b220 16bf
00000070: 5be7 b43f f417 ec3e f8aa d0bd 4111 85be
00000080: 28de dcbe 4881 e3be ca36 61bf 6604 bd3d
00000090: b457 42be 261e a2be 88e7 433f 68d5 ca3f
000000a0: 718a ec3e b6a4 59bf a8b8 933f d974 01bf
000000b0: e788 1bbc c929 ba3e ec34 383f 618f e6bf
000000c0: b73d 66be 1af1 fb3e 9b62 35bf 66f5 23c0
000000d0: c3c7 a63e 0072 f4bf b63a cf3e 0211 eebf
000000e0: 5914 57bf ae4f d43e 81bf 9c3f aa7c da3e
000000f0: dc30 abbd 52f2 42be 92b7 0bbe 0e65 2fbf
00000100: 4d8f 19bf c562 bbbf 37a1 803e f46f 8e3f
00000110: 659e ce3f 0193 723e 7638 07bf f226 aa3f
00000120: 6b83 29bf b438 34bf da72 0bbf 63b6 6f3d
00000130: b7e1 c93e a66f 78be 400c 333f 30e0 d23f
00000140: 4a76 81bf 9a6b 2dbf 44c9 ce3d 2622 883f
00000150: d93e 853e 7604 c7bd 832d 623f 0f8c 763e
00000160: dfd9 f9bf b795 f5be 90e8 a8bf 61f3 073f
00000170: 17e1 babf 83d1 143f 7b8e 143f 92aa 1b3f
00000180: ca9c cfbf 5c4c eebe 9a12 a23f 656e 61bc
00000190: c560 94bf 069b 45bf 796d 89bf 6ec7 033e
000001a0: fcdd e13d 0d69 de3e 5e44 4bbe a72f 143f
000001b0: f7c0 203f 81ac bb3f 7f41 02c0 cab4 143f
000001c0: cb95 38be b306 d13f c9fb f73e e768 92be
000001d0: dc9b 603d f1c0 5f3f b70d eabd f037 b93e
000001e0: f08c 433f 2d99 4dbf 82a7 17bf ad4f 93bf
000001f0: 008d 8a3d 573a cb3e c35a 49bf ecfd b83e
00000200: 2645 cd3f 2d13 02be 6ab9 ffbd 87e8 cebe
00000210: aadf 80bf 0b81 6dbf ae8e cebf a3ee e43d
00000220: 5f6a 7abf 406b c23e 814c 7bbe bee9 a8be
00000230: efd9 abbd 4272 07be ddf0 853e fbc0 473d
00000240: 916a af3e b557 09be f40b 17be 9bd9 64bc
00000250: 2419 d23e 1aa9 bb3e e1c7 e0bc d004 b8be
00000260: 8214 1dbf 415c 9fbd c2b8 3e3e 17ae abbe
00000270: e8e6 d7be 5259 c93e 385c 9e3e e935 2f3f
00000280: 1ee7 37bd 9d2e 9fbd c73f abbe 8e4d 82be
00000290: 605b d33c 0dda a3be 5cc3 123e 4a81 16bf
000002a0: 1acb 903f 886b 143e 6024 47bd 4604 dfbe
000002b0: 7d00 1ebe 55f6 e9be 8f3b a5bd 5b36 3abe
000002c0: c2b9 ae3e 5e29 f13e 5fa4 3c3f db98 9a3f
000002d0: 30d1 4fbe 28b2 1a3f 15f9 2dc0 5046 8abf
000002e0: 792d 153f 3037 9abf cf2a 9c3e 2427 6a3f
000002f0: f81d ae3f efce 44bf 0e70 47be a360 fe3f
00000300: f0d3 c9be 6281 cfbf 6c26 633f d736 a43d
00000310: 1629 aa3f dc65 043f 50e9 abbf f4cc 123f
00000320: d635 833b a255 a03f 57ac 213e 8616 83be
00000330: 65ab 1fbf 8e51 16c0 29d1 013f d839 d23d
00000340: aaa3 2340 264e 533d 71df 843f f5fa f4bf
00000350: f934 93bf c80c 95c0 0e2c a83e 2820 a53e
00000360: 47d4 61bb 6618 243e 583e fc3e d567 35bf
00000370: dd82 223f 2d2f 063d be78 c23f bb52 3d3c
00000380: 05b4 843f a517 68bf 9537 f6be 07fd 3e3e
00000390: a5ae 42bf 4af0 503f 6e73 debe f86c 26bf
000003a0: d9b3 87bf 4df9 2fbf 470d 5f3e 676d d03e
000003b0: 4416 5f3e cf84 b8bd c3ee f23f fe98 1d3e
000003c0: 5283 8fbc 14c8 d03d 299e 713e 82b0 993f
000003d0: fc30 7ebf 9e6e a2bf 864b 2e3f 80ee 02bf
000003e0: a348 e13f 8235 de3f 2072 17bf 9446 e93e
000003f0: d4ed 15bf a2e7 9c3f f993 843f 289d 14bf
-0.83906347 -0.48562068 1.2556881 -1.3126793 -0.4406268 -0.74283254 0.5873725 -0.24961758
0.18646376 1.6294771 -0.13715568 -1.0250348 -0.35284135 1.1719512 1.2650592 -0.70585334
1.8136457 0.43877208 1.417819 1.8581758 -0.15874615 0.201529 0.15658072 0.08539586
-0.19437928 -0.6840016 0.04072475 -0.5864364 1.4133104 0.46112025 -0.1018886 -0.25989726
-0.43138242 -0.4443457 -0.87974226 0.092293546 -0.18978769 -0.31663626 0.76525164 1.5846376
0.46199372 -0.85016954 1.1540728 -0.5056892 -0.009493089 0.36360005 0.7195575 -1.8012506
-0.2248448 0.49207383 -0.70853585 -2.561853 0.3257428 -1.909729 0.4047448 -1.859894
-0.84015423 0.4146704 1.2245942 0.42673236 -0.083589286 -0.1903775 -0.13644245 -0.6851357
-0.59984285 -1.4639517 0.25122997 1.1127915 1.6142088 0.2368889 -0.5282053 1.3293135
-0.6621615 -0.7039902 -0.54472125 0.058523547 0.3943002 -0.2426134 0.69940567 1.6474667
-1.0114224 -0.6774231 0.10096982 1.0635421 0.2602451 -0.09717648 0.88350695 0.24076866
-1.9519614 -0.47965786 -1.3195972 0.5310574 -1.4599942 0.5813219 0.5802991 0.60807145
-1.6219723 -0.46542633 1.2661927 -0.01375923 -1.1592032 -0.7718967 -1.0736533 0.12869045
0.11028668 0.43439522 -0.19850299 0.5788521 0.6279444 1.4662019 -2.0352476 0.5808836
-0.18025891 1.633017 0.48434284 -0.2859566 0.05483614 0.8740378 -0.11428397 0.3617549
0.7638693 -0.8031185 -0.5923997 -1.150869 0.06765175 0.39692947 -0.78654116 0.36131227
1.6036727 -0.12702627 -0.12486537 -0.4041178 -1.0068257 -0.9277503 -1.6137292 0.11178329
-0.9781856 0.3797245 -0.24540903 -0.3299083 -0.08391177 -0.1322718 0.26160327 0.048768025
0.3426099 -0.13412364 -0.14750654 -0.013967897 0.41034806 0.36652452 -0.02743906 -0.35941172
-0.6135942 -0.07781268 0.18625167 -0.33531258 -0.42168355 0.39325958 0.30929732 0.68441635
-0.044898145 -0.07772563 -0.33447096 -0.25449795 0.025800407 -0.32002297 0.14332336 -0.5879103
1.1311982 0.14494145 -0.048618674 -0.43557948 -0.15429874 -0.4569575 -0.080680005 -0.18184797
0.34126097 0.47101873 0.7368831 1.2077898 -0.20294642 0.60428095 -2.7183278 -1.0802708
0.5827251 -1.2048092 0.3050141 0.91465974 1.3602896 -0.76878256 -0.19476339 1.9873241
-0.39419508 -1.621136 0.887305 0.08018272 1.3293788 0.51717925 -1.3430576 0.57343984
0.0040042205 1.2526133 0.15788399 -0.25603122 -0.623709 -2.3487277 0.5070978 0.10264939
2.5568643 0.0515882 1.0380689 -1.9139086 -1.1500541 -4.65781 0.3284611 0.32251096
-0.0034458803 0.16024932 0.49266315 -0.7086156 0.6348093 0.032759834 1.5193098 0.011555369
1.0367438 -0.9066108 -0.4808928 0.1865121 -0.76047736 0.8161665 -0.4344744 -0.65010023
-1.060176 -0.6873978 0.21782409 0.40708467 0.21785837 -0.09009706 1.8979114 0.15390393
-0.017518673 0.10194412 0.2359549 1.2006991 -0.99293494 -1.2690008 0.6808399 -0.5114517
1.7600292 1.7360079 -0.59158516 0.4556166 -0.5856602 1.2258189 1.0357658 -0.580523

lin.weight f4 [2, 60]
00000000: 1937 1840 477a 563e 8f45 6a40 0d29 83bf
00000010: 5db5 db3f 82e1 7f40 0fff 6a3f 58c2 a23a
00000020: f35a e83e 60fa 0bc0 e956 9b40 6687 f93c
00000030: 928c 16c0 cf39 ce3f 89ce 4240 d59e 3b40
00000040: 0a6e 1340 173e 4a40 db75 5fc0 2e4a 0b40
00000050: 891e 38c0 a534 cabf 9b45 7f3f b0b9 99bf
00000060: 2303 58bf 8742 15bf 0aba 9b40 b668 fc3e
00000070: 0fd0 b9bf 9cc0 ec3f 4056 1b40 29fa 5ac0
00000080: 7b97 7abf cce6 08c0 4db6 90bf 73db 0540
00000090: 499b 03c0 e8e8 7340 ae0c cabd 2a6a e5bf
000000a0: e02e 16be c6ad 54be 03d6 573f 0332 09bf
000000b0: 8ea8 47bf 03a0 f23f e36e f73e 8b2f c23d
000000c0: 2ced 0b3d c32a 733d 4e89 d83e a07c 31bf
000000d0: e1e5 2a3d 7db6 35be b1ed 8ebe f590 11be
000000e0: a182 28be 8bf7 8bbe 906d ef3e 148d 73be
000000f0: d47d 1dc0 9a88 7abe 9624 63c0 d123 7d3f
00000100: 296c d2bf d31c 7bc0 848a 51bf 9e6d e0bc
00000110: 5936 f7be 02c8 1040 c47e a0c0 b860 1ebe
00000120: ddd2 1440 5692 bfbf bc24 3ec0 3130 39c0
00000130: b87b 16c0 7590 50c0 45f6 5440 0a3e 0dc0
00000140: f73a 3240 20df d73f 5a36 6fbf ecbf 9f3f
00000150: 81ee 7a3f 157a 3d3f 0702 9ac0 4513 bbbe
00000160: efe4 c23f ee8f ddbf 4d21 1fc0 68f6 5440
00000170: 131a 8d3f 14f6 fd3f ea70 733f 2d29 05c0
00000180: 1ebe 0d40 9262 7ec0 cd6b 773d 5799 f63f
00000190: bfc5 123e c2fc 8d3d 9335 57bf d186 aa3e
000001a0: 9c84 273f 986c fbbf b3af ebbe e5cc c03d
000001b0: caa2 bb3d fe46 86be fbf0 c2be 178a 233f
000001c0: 3c72 fcbc 25f5 413c 101a 5f3e a96c 7b3e
000001d0: 1f39 533e 707a 233e 3dfe f3be edfe ee3d
2.378363 0.20945083 3.6604955 -1.0246903 1.7164723 3.998139 0.9179544 0.0012417538
0.4538189 -2.1871567 4.854359 0.03046007 -2.3523297 1.6111392 3.043856 2.9315693
2.3035913 3.1600397 -3.4915683 2.1764026 -2.8768637 -1.5797316 0.99715585 -1.2009792
-0.84379786 -0.5830464 4.86646 0.49298638 -1.451662 1.849628 2.4271393 -3.4215186
-0.9788739 -2.1390867 -1.1305634 2.091519 -2.0563529 3.8110905 -0.098657 -1.7923024
-0.14666319 -0.20769414 0.8431093 -0.53591937 -0.7799157 1.8955082 0.48326787 0.09481724
0.03416173 0.059366953 0.42292255 -0.6933079 0.041723136 -0.17745395 -0.2791572 -0.14215453
-0.16456081 -0.27337298 0.46763277 -0.23784286 -2.460805 -0.24466172 -3.549108 0.98882776
-1.6439258 -3.9236343 -0.81851983 -0.02739602 -0.4828365 2.2622075 -5.0154743 -0.15466583
2.32537 -1.4966533 -2.970992 -2.8935664 -2.3513012 -3.258817 3.327531 -2.2069116
2.784849 1.6864967 -0.9344231 1.2480445 0.9802018 0.7401441 -4.8127475 -0.3653814
1.5226115 -1.7309549 -2.4864075 3.3275394 1.1023582 1.9840722 0.9509417 -2.0806382
2.2147288 -3.9747663 0.06040554 1.9265546 0.14333247 0.06932975 -0.8406612 0.33305982
0.6543672 -1.9642515 -0.46032485 0.094140805 0.09161909 -0.26226038 -0.38074479 0.63882583
-0.03081619 0.011838232 0.21787286 0.2455317 0.20627259 0.15964675 -0.47654906 0.11669717

lin.bias f4 [2]
00000000: 62fb 27bf 2c2c 423f
-0.65617955 0.7584865
